<?xml version="1.0"?>
<net name="mobilenet_ssd_672x384" version="3" batch="1">
	<layers>
		<layer name="mbox_conf_reshape/DimData_const" type="Const" precision="FP32" id="0">
			<output>
				<port id="0">
					<dim>3</dim>
				</port>
			</output>
			<blobs>
				<custom offset="0" size="12" />
			</blobs>
		</layer>
		<layer name="data" type="Input" precision="FP32" id="1">
			<output>
				<port id="0">
					<dim>1</dim>
					<dim>3</dim>
					<dim>384</dim>
					<dim>672</dim>
				</port>
			</output>
		</layer>
		<layer name="Mul_/Fused_Mul_/FusedScaleShift_" type="ScaleShift" precision="FP32" id="2">
			<data broadcast="0" />
			<input>
				<port id="0">
					<dim>1</dim>
					<dim>3</dim>
					<dim>384</dim>
					<dim>672</dim>
				</port>
			</input>
			<output>
				<port id="1">
					<dim>1</dim>
					<dim>3</dim>
					<dim>384</dim>
					<dim>672</dim>
				</port>
			</output>
			<blobs>
				<biases offset="12" size="12" />
				<weights offset="24" size="12" />
			</blobs>
		</layer>
		<layer name="conv1" type="Convolution" precision="FP32" id="3">
			<data dilations="1,1" group="1" kernel="3,3" output="24" pads_begin="1,1" pads_end="1,1" quantization_level="I8" strides="2,2" />
			<input>
				<port id="0">
					<dim>1</dim>
					<dim>3</dim>
					<dim>384</dim>
					<dim>672</dim>
				</port>
			</input>
			<output>
				<port id="1">
					<dim>1</dim>
					<dim>24</dim>
					<dim>192</dim>
					<dim>336</dim>
				</port>
			</output>
			<blobs>
				<biases offset="36" size="96" />
				<weights offset="132" size="2592" />
			</blobs>
		</layer>
		<layer name="relu1" type="ReLU" precision="FP32" id="4">
			<data negative_slope="0.0" />
			<input>
				<port id="0">
					<dim>1</dim>
					<dim>24</dim>
					<dim>192</dim>
					<dim>336</dim>
				</port>
			</input>
			<output>
				<port id="1">
					<dim>1</dim>
					<dim>24</dim>
					<dim>192</dim>
					<dim>336</dim>
				</port>
			</output>
		</layer>
		<layer name="conv2_1/dw" type="Convolution" precision="FP32" id="5">
			<data dilations="1,1" group="24" kernel="3,3" output="24" pads_begin="1,1" pads_end="1,1" quantization_level="I8" strides="1,1" />
			<input>
				<port id="0">
					<dim>1</dim>
					<dim>24</dim>
					<dim>192</dim>
					<dim>336</dim>
				</port>
			</input>
			<output>
				<port id="1">
					<dim>1</dim>
					<dim>24</dim>
					<dim>192</dim>
					<dim>336</dim>
				</port>
			</output>
			<blobs>
				<biases offset="2724" size="96" />
				<weights offset="2820" size="864" />
			</blobs>
		</layer>
		<layer name="relu2_1/dw" type="ReLU" precision="FP32" id="6">
			<data negative_slope="0.0" />
			<input>
				<port id="0">
					<dim>1</dim>
					<dim>24</dim>
					<dim>192</dim>
					<dim>336</dim>
				</port>
			</input>
			<output>
				<port id="1">
					<dim>1</dim>
					<dim>24</dim>
					<dim>192</dim>
					<dim>336</dim>
				</port>
			</output>
		</layer>
		<layer name="conv2_1/sep" type="Convolution" precision="FP32" id="7">
			<data dilations="1,1" group="1" kernel="1,1" output="56" pads_begin="0,0" pads_end="0,0" quantization_level="I8" strides="1,1" />
			<input>
				<port id="0">
					<dim>1</dim>
					<dim>24</dim>
					<dim>192</dim>
					<dim>336</dim>
				</port>
			</input>
			<output>
				<port id="1">
					<dim>1</dim>
					<dim>56</dim>
					<dim>192</dim>
					<dim>336</dim>
				</port>
			</output>
			<blobs>
				<biases offset="3684" size="224" />
				<weights offset="3908" size="5376" />
			</blobs>
		</layer>
		<layer name="relu2_1/sep" type="ReLU" precision="FP32" id="8">
			<data negative_slope="0.0" />
			<input>
				<port id="0">
					<dim>1</dim>
					<dim>56</dim>
					<dim>192</dim>
					<dim>336</dim>
				</port>
			</input>
			<output>
				<port id="1">
					<dim>1</dim>
					<dim>56</dim>
					<dim>192</dim>
					<dim>336</dim>
				</port>
			</output>
		</layer>
		<layer name="conv2_2/dw" type="Convolution" precision="FP32" id="9">
			<data dilations="1,1" group="56" kernel="3,3" output="56" pads_begin="1,1" pads_end="1,1" quantization_level="I8" strides="2,2" />
			<input>
				<port id="0">
					<dim>1</dim>
					<dim>56</dim>
					<dim>192</dim>
					<dim>336</dim>
				</port>
			</input>
			<output>
				<port id="1">
					<dim>1</dim>
					<dim>56</dim>
					<dim>96</dim>
					<dim>168</dim>
				</port>
			</output>
			<blobs>
				<biases offset="9284" size="224" />
				<weights offset="9508" size="2016" />
			</blobs>
		</layer>
		<layer name="relu2_2/dw" type="ReLU" precision="FP32" id="10">
			<data negative_slope="0.0" />
			<input>
				<port id="0">
					<dim>1</dim>
					<dim>56</dim>
					<dim>96</dim>
					<dim>168</dim>
				</port>
			</input>
			<output>
				<port id="1">
					<dim>1</dim>
					<dim>56</dim>
					<dim>96</dim>
					<dim>168</dim>
				</port>
			</output>
		</layer>
		<layer name="conv2_2/sep" type="Convolution" precision="FP32" id="11">
			<data dilations="1,1" group="1" kernel="1,1" output="104" pads_begin="0,0" pads_end="0,0" quantization_level="I8" strides="1,1" />
			<input>
				<port id="0">
					<dim>1</dim>
					<dim>56</dim>
					<dim>96</dim>
					<dim>168</dim>
				</port>
			</input>
			<output>
				<port id="1">
					<dim>1</dim>
					<dim>104</dim>
					<dim>96</dim>
					<dim>168</dim>
				</port>
			</output>
			<blobs>
				<biases offset="11524" size="416" />
				<weights offset="11940" size="23296" />
			</blobs>
		</layer>
		<layer name="relu2_2/sep" type="ReLU" precision="FP32" id="12">
			<data negative_slope="0.0" />
			<input>
				<port id="0">
					<dim>1</dim>
					<dim>104</dim>
					<dim>96</dim>
					<dim>168</dim>
				</port>
			</input>
			<output>
				<port id="1">
					<dim>1</dim>
					<dim>104</dim>
					<dim>96</dim>
					<dim>168</dim>
				</port>
			</output>
		</layer>
		<layer name="conv3_1/dw" type="Convolution" precision="FP32" id="13">
			<data dilations="1,1" group="104" kernel="3,3" output="104" pads_begin="1,1" pads_end="1,1" quantization_level="FP32" strides="1,1" />
			<input>
				<port id="0">
					<dim>1</dim>
					<dim>104</dim>
					<dim>96</dim>
					<dim>168</dim>
				</port>
			</input>
			<output>
				<port id="1">
					<dim>1</dim>
					<dim>104</dim>
					<dim>96</dim>
					<dim>168</dim>
				</port>
			</output>
			<blobs>
				<biases offset="35236" size="416" />
				<weights offset="35652" size="3744" />
			</blobs>
		</layer>
		<layer name="relu3_1/dw" type="ReLU" precision="FP32" id="14">
			<data negative_slope="0.0" />
			<input>
				<port id="0">
					<dim>1</dim>
					<dim>104</dim>
					<dim>96</dim>
					<dim>168</dim>
				</port>
			</input>
			<output>
				<port id="1">
					<dim>1</dim>
					<dim>104</dim>
					<dim>96</dim>
					<dim>168</dim>
				</port>
			</output>
		</layer>
		<layer name="conv3_1/sep" type="Convolution" precision="FP32" id="15">
			<data dilations="1,1" group="1" kernel="1,1" output="120" pads_begin="0,0" pads_end="0,0" quantization_level="I8" strides="1,1" />
			<input>
				<port id="0">
					<dim>1</dim>
					<dim>104</dim>
					<dim>96</dim>
					<dim>168</dim>
				</port>
			</input>
			<output>
				<port id="1">
					<dim>1</dim>
					<dim>120</dim>
					<dim>96</dim>
					<dim>168</dim>
				</port>
			</output>
			<blobs>
				<biases offset="39396" size="480" />
				<weights offset="39876" size="49920" />
			</blobs>
		</layer>
		<layer name="relu3_1/sep" type="ReLU" precision="FP32" id="16">
			<data negative_slope="0.0" />
			<input>
				<port id="0">
					<dim>1</dim>
					<dim>120</dim>
					<dim>96</dim>
					<dim>168</dim>
				</port>
			</input>
			<output>
				<port id="1">
					<dim>1</dim>
					<dim>120</dim>
					<dim>96</dim>
					<dim>168</dim>
				</port>
			</output>
		</layer>
		<layer name="conv3_2/dw" type="Convolution" precision="FP32" id="17">
			<data dilations="1,1" group="120" kernel="3,3" output="120" pads_begin="1,1" pads_end="1,1" quantization_level="FP32" strides="2,2" />
			<input>
				<port id="0">
					<dim>1</dim>
					<dim>120</dim>
					<dim>96</dim>
					<dim>168</dim>
				</port>
			</input>
			<output>
				<port id="1">
					<dim>1</dim>
					<dim>120</dim>
					<dim>48</dim>
					<dim>84</dim>
				</port>
			</output>
			<blobs>
				<biases offset="89796" size="480" />
				<weights offset="90276" size="4320" />
			</blobs>
		</layer>
		<layer name="relu3_2/dw" type="ReLU" precision="FP32" id="18">
			<data negative_slope="0.0" />
			<input>
				<port id="0">
					<dim>1</dim>
					<dim>120</dim>
					<dim>48</dim>
					<dim>84</dim>
				</port>
			</input>
			<output>
				<port id="1">
					<dim>1</dim>
					<dim>120</dim>
					<dim>48</dim>
					<dim>84</dim>
				</port>
			</output>
		</layer>
		<layer name="conv3_2/sep" type="Convolution" precision="FP32" id="19">
			<data dilations="1,1" group="1" kernel="1,1" output="232" pads_begin="0,0" pads_end="0,0" quantization_level="I8" strides="1,1" />
			<input>
				<port id="0">
					<dim>1</dim>
					<dim>120</dim>
					<dim>48</dim>
					<dim>84</dim>
				</port>
			</input>
			<output>
				<port id="1">
					<dim>1</dim>
					<dim>232</dim>
					<dim>48</dim>
					<dim>84</dim>
				</port>
			</output>
			<blobs>
				<biases offset="94596" size="928" />
				<weights offset="95524" size="111360" />
			</blobs>
		</layer>
		<layer name="relu3_2/sep" type="ReLU" precision="FP32" id="20">
			<data negative_slope="0.0" />
			<input>
				<port id="0">
					<dim>1</dim>
					<dim>232</dim>
					<dim>48</dim>
					<dim>84</dim>
				</port>
			</input>
			<output>
				<port id="1">
					<dim>1</dim>
					<dim>232</dim>
					<dim>48</dim>
					<dim>84</dim>
				</port>
			</output>
		</layer>
		<layer name="conv4_1/dw" type="Convolution" precision="FP32" id="21">
			<data dilations="1,1" group="232" kernel="3,3" output="232" pads_begin="1,1" pads_end="1,1" quantization_level="FP32" strides="1,1" />
			<input>
				<port id="0">
					<dim>1</dim>
					<dim>232</dim>
					<dim>48</dim>
					<dim>84</dim>
				</port>
			</input>
			<output>
				<port id="1">
					<dim>1</dim>
					<dim>232</dim>
					<dim>48</dim>
					<dim>84</dim>
				</port>
			</output>
			<blobs>
				<biases offset="206884" size="928" />
				<weights offset="207812" size="8352" />
			</blobs>
		</layer>
		<layer name="relu4_1/dw" type="ReLU" precision="FP32" id="22">
			<data negative_slope="0.0" />
			<input>
				<port id="0">
					<dim>1</dim>
					<dim>232</dim>
					<dim>48</dim>
					<dim>84</dim>
				</port>
			</input>
			<output>
				<port id="1">
					<dim>1</dim>
					<dim>232</dim>
					<dim>48</dim>
					<dim>84</dim>
				</port>
			</output>
		</layer>
		<layer name="conv4_1/sep" type="Convolution" precision="FP32" id="23">
			<data dilations="1,1" group="1" kernel="1,1" output="232" pads_begin="0,0" pads_end="0,0" quantization_level="I8" strides="1,1" />
			<input>
				<port id="0">
					<dim>1</dim>
					<dim>232</dim>
					<dim>48</dim>
					<dim>84</dim>
				</port>
			</input>
			<output>
				<port id="1">
					<dim>1</dim>
					<dim>232</dim>
					<dim>48</dim>
					<dim>84</dim>
				</port>
			</output>
			<blobs>
				<biases offset="216164" size="928" />
				<weights offset="217092" size="215296" />
			</blobs>
		</layer>
		<layer name="relu4_1/sep" type="ReLU" precision="FP32" id="24">
			<data negative_slope="0.0" />
			<input>
				<port id="0">
					<dim>1</dim>
					<dim>232</dim>
					<dim>48</dim>
					<dim>84</dim>
				</port>
			</input>
			<output>
				<port id="1">
					<dim>1</dim>
					<dim>232</dim>
					<dim>48</dim>
					<dim>84</dim>
				</port>
			</output>
		</layer>
		<layer name="conv4_2/dw" type="Convolution" precision="FP32" id="25">
			<data dilations="1,1" group="232" kernel="3,3" output="232" pads_begin="1,1" pads_end="1,1" quantization_level="FP32" strides="2,2" />
			<input>
				<port id="0">
					<dim>1</dim>
					<dim>232</dim>
					<dim>48</dim>
					<dim>84</dim>
				</port>
			</input>
			<output>
				<port id="1">
					<dim>1</dim>
					<dim>232</dim>
					<dim>24</dim>
					<dim>42</dim>
				</port>
			</output>
			<blobs>
				<biases offset="432388" size="928" />
				<weights offset="433316" size="8352" />
			</blobs>
		</layer>
		<layer name="relu4_2/dw" type="ReLU" precision="FP32" id="26">
			<data negative_slope="0.0" />
			<input>
				<port id="0">
					<dim>1</dim>
					<dim>232</dim>
					<dim>24</dim>
					<dim>42</dim>
				</port>
			</input>
			<output>
				<port id="1">
					<dim>1</dim>
					<dim>232</dim>
					<dim>24</dim>
					<dim>42</dim>
				</port>
			</output>
		</layer>
		<layer name="conv4_2/sep" type="Convolution" precision="FP32" id="27">
			<data dilations="1,1" group="1" kernel="1,1" output="360" pads_begin="0,0" pads_end="0,0" quantization_level="I8" strides="1,1" />
			<input>
				<port id="0">
					<dim>1</dim>
					<dim>232</dim>
					<dim>24</dim>
					<dim>42</dim>
				</port>
			</input>
			<output>
				<port id="1">
					<dim>1</dim>
					<dim>360</dim>
					<dim>24</dim>
					<dim>42</dim>
				</port>
			</output>
			<blobs>
				<biases offset="441668" size="1440" />
				<weights offset="443108" size="334080" />
			</blobs>
		</layer>
		<layer name="relu4_2/sep" type="ReLU" precision="FP32" id="28">
			<data negative_slope="0.0" />
			<input>
				<port id="0">
					<dim>1</dim>
					<dim>360</dim>
					<dim>24</dim>
					<dim>42</dim>
				</port>
			</input>
			<output>
				<port id="1">
					<dim>1</dim>
					<dim>360</dim>
					<dim>24</dim>
					<dim>42</dim>
				</port>
			</output>
		</layer>
		<layer name="conv5_1/dw" type="Convolution" precision="FP32" id="29">
			<data dilations="1,1" group="360" kernel="3,3" output="360" pads_begin="1,1" pads_end="1,1" quantization_level="FP32" strides="1,1" />
			<input>
				<port id="0">
					<dim>1</dim>
					<dim>360</dim>
					<dim>24</dim>
					<dim>42</dim>
				</port>
			</input>
			<output>
				<port id="1">
					<dim>1</dim>
					<dim>360</dim>
					<dim>24</dim>
					<dim>42</dim>
				</port>
			</output>
			<blobs>
				<biases offset="777188" size="1440" />
				<weights offset="778628" size="12960" />
			</blobs>
		</layer>
		<layer name="relu5_1/dw" type="ReLU" precision="FP32" id="30">
			<data negative_slope="0.0" />
			<input>
				<port id="0">
					<dim>1</dim>
					<dim>360</dim>
					<dim>24</dim>
					<dim>42</dim>
				</port>
			</input>
			<output>
				<port id="1">
					<dim>1</dim>
					<dim>360</dim>
					<dim>24</dim>
					<dim>42</dim>
				</port>
			</output>
		</layer>
		<layer name="conv5_1/sep" type="Convolution" precision="FP32" id="31">
			<data dilations="1,1" group="1" kernel="1,1" output="328" pads_begin="0,0" pads_end="0,0" quantization_level="I8" strides="1,1" />
			<input>
				<port id="0">
					<dim>1</dim>
					<dim>360</dim>
					<dim>24</dim>
					<dim>42</dim>
				</port>
			</input>
			<output>
				<port id="1">
					<dim>1</dim>
					<dim>328</dim>
					<dim>24</dim>
					<dim>42</dim>
				</port>
			</output>
			<blobs>
				<biases offset="791588" size="1312" />
				<weights offset="792900" size="472320" />
			</blobs>
		</layer>
		<layer name="relu5_1/sep" type="ReLU" precision="FP32" id="32">
			<data negative_slope="0.0" />
			<input>
				<port id="0">
					<dim>1</dim>
					<dim>328</dim>
					<dim>24</dim>
					<dim>42</dim>
				</port>
			</input>
			<output>
				<port id="1">
					<dim>1</dim>
					<dim>328</dim>
					<dim>24</dim>
					<dim>42</dim>
				</port>
			</output>
		</layer>
		<layer name="conv5_2/dw" type="Convolution" precision="FP32" id="33">
			<data dilations="1,1" group="328" kernel="3,3" output="328" pads_begin="1,1" pads_end="1,1" quantization_level="FP32" strides="1,1" />
			<input>
				<port id="0">
					<dim>1</dim>
					<dim>328</dim>
					<dim>24</dim>
					<dim>42</dim>
				</port>
			</input>
			<output>
				<port id="1">
					<dim>1</dim>
					<dim>328</dim>
					<dim>24</dim>
					<dim>42</dim>
				</port>
			</output>
			<blobs>
				<biases offset="1265220" size="1312" />
				<weights offset="1266532" size="11808" />
			</blobs>
		</layer>
		<layer name="relu5_2/dw" type="ReLU" precision="FP32" id="34">
			<data negative_slope="0.0" />
			<input>
				<port id="0">
					<dim>1</dim>
					<dim>328</dim>
					<dim>24</dim>
					<dim>42</dim>
				</port>
			</input>
			<output>
				<port id="1">
					<dim>1</dim>
					<dim>328</dim>
					<dim>24</dim>
					<dim>42</dim>
				</port>
			</output>
		</layer>
		<layer name="conv5_2/sep" type="Convolution" precision="FP32" id="35">
			<data dilations="1,1" group="1" kernel="1,1" output="304" pads_begin="0,0" pads_end="0,0" quantization_level="I8" strides="1,1" />
			<input>
				<port id="0">
					<dim>1</dim>
					<dim>328</dim>
					<dim>24</dim>
					<dim>42</dim>
				</port>
			</input>
			<output>
				<port id="1">
					<dim>1</dim>
					<dim>304</dim>
					<dim>24</dim>
					<dim>42</dim>
				</port>
			</output>
			<blobs>
				<biases offset="1278340" size="1216" />
				<weights offset="1279556" size="398848" />
			</blobs>
		</layer>
		<layer name="relu5_2/sep" type="ReLU" precision="FP32" id="36">
			<data negative_slope="0.0" />
			<input>
				<port id="0">
					<dim>1</dim>
					<dim>304</dim>
					<dim>24</dim>
					<dim>42</dim>
				</port>
			</input>
			<output>
				<port id="1">
					<dim>1</dim>
					<dim>304</dim>
					<dim>24</dim>
					<dim>42</dim>
				</port>
			</output>
		</layer>
		<layer name="conv5_3/dw" type="Convolution" precision="FP32" id="37">
			<data dilations="1,1" group="304" kernel="3,3" output="304" pads_begin="1,1" pads_end="1,1" quantization_level="I8" strides="1,1" />
			<input>
				<port id="0">
					<dim>1</dim>
					<dim>304</dim>
					<dim>24</dim>
					<dim>42</dim>
				</port>
			</input>
			<output>
				<port id="1">
					<dim>1</dim>
					<dim>304</dim>
					<dim>24</dim>
					<dim>42</dim>
				</port>
			</output>
			<blobs>
				<biases offset="1678404" size="1216" />
				<weights offset="1679620" size="10944" />
			</blobs>
		</layer>
		<layer name="relu5_3/dw" type="ReLU" precision="FP32" id="38">
			<data negative_slope="0.0" />
			<input>
				<port id="0">
					<dim>1</dim>
					<dim>304</dim>
					<dim>24</dim>
					<dim>42</dim>
				</port>
			</input>
			<output>
				<port id="1">
					<dim>1</dim>
					<dim>304</dim>
					<dim>24</dim>
					<dim>42</dim>
				</port>
			</output>
		</layer>
		<layer name="conv5_3/sep" type="Convolution" precision="FP32" id="39">
			<data dilations="1,1" group="1" kernel="1,1" output="248" pads_begin="0,0" pads_end="0,0" quantization_level="I8" strides="1,1" />
			<input>
				<port id="0">
					<dim>1</dim>
					<dim>304</dim>
					<dim>24</dim>
					<dim>42</dim>
				</port>
			</input>
			<output>
				<port id="1">
					<dim>1</dim>
					<dim>248</dim>
					<dim>24</dim>
					<dim>42</dim>
				</port>
			</output>
			<blobs>
				<biases offset="1690564" size="992" />
				<weights offset="1691556" size="301568" />
			</blobs>
		</layer>
		<layer name="relu5_3/sep" type="ReLU" precision="FP32" id="40">
			<data negative_slope="0.0" />
			<input>
				<port id="0">
					<dim>1</dim>
					<dim>248</dim>
					<dim>24</dim>
					<dim>42</dim>
				</port>
			</input>
			<output>
				<port id="1">
					<dim>1</dim>
					<dim>248</dim>
					<dim>24</dim>
					<dim>42</dim>
				</port>
			</output>
		</layer>
		<layer name="conv5_4/dw" type="Convolution" precision="FP32" id="41">
			<data dilations="1,1" group="248" kernel="3,3" output="248" pads_begin="1,1" pads_end="1,1" quantization_level="FP32" strides="1,1" />
			<input>
				<port id="0">
					<dim>1</dim>
					<dim>248</dim>
					<dim>24</dim>
					<dim>42</dim>
				</port>
			</input>
			<output>
				<port id="1">
					<dim>1</dim>
					<dim>248</dim>
					<dim>24</dim>
					<dim>42</dim>
				</port>
			</output>
			<blobs>
				<biases offset="1993124" size="992" />
				<weights offset="1994116" size="8928" />
			</blobs>
		</layer>
		<layer name="relu5_4/dw" type="ReLU" precision="FP32" id="42">
			<data negative_slope="0.0" />
			<input>
				<port id="0">
					<dim>1</dim>
					<dim>248</dim>
					<dim>24</dim>
					<dim>42</dim>
				</port>
			</input>
			<output>
				<port id="1">
					<dim>1</dim>
					<dim>248</dim>
					<dim>24</dim>
					<dim>42</dim>
				</port>
			</output>
		</layer>
		<layer name="conv5_4/sep" type="Convolution" precision="FP32" id="43">
			<data dilations="1,1" group="1" kernel="1,1" output="224" pads_begin="0,0" pads_end="0,0" quantization_level="I8" strides="1,1" />
			<input>
				<port id="0">
					<dim>1</dim>
					<dim>248</dim>
					<dim>24</dim>
					<dim>42</dim>
				</port>
			</input>
			<output>
				<port id="1">
					<dim>1</dim>
					<dim>224</dim>
					<dim>24</dim>
					<dim>42</dim>
				</port>
			</output>
			<blobs>
				<biases offset="2003044" size="896" />
				<weights offset="2003940" size="222208" />
			</blobs>
		</layer>
		<layer name="relu5_4/sep" type="ReLU" precision="FP32" id="44">
			<data negative_slope="0.0" />
			<input>
				<port id="0">
					<dim>1</dim>
					<dim>224</dim>
					<dim>24</dim>
					<dim>42</dim>
				</port>
			</input>
			<output>
				<port id="1">
					<dim>1</dim>
					<dim>224</dim>
					<dim>24</dim>
					<dim>42</dim>
				</port>
			</output>
		</layer>
		<layer name="conv5_5/dw" type="Convolution" precision="FP32" id="45">
			<data dilations="1,1" group="224" kernel="3,3" output="224" pads_begin="1,1" pads_end="1,1" quantization_level="I8" strides="1,1" />
			<input>
				<port id="0">
					<dim>1</dim>
					<dim>224</dim>
					<dim>24</dim>
					<dim>42</dim>
				</port>
			</input>
			<output>
				<port id="1">
					<dim>1</dim>
					<dim>224</dim>
					<dim>24</dim>
					<dim>42</dim>
				</port>
			</output>
			<blobs>
				<biases offset="2226148" size="896" />
				<weights offset="2227044" size="8064" />
			</blobs>
		</layer>
		<layer name="relu5_5/dw" type="ReLU" precision="FP32" id="46">
			<data negative_slope="0.0" />
			<input>
				<port id="0">
					<dim>1</dim>
					<dim>224</dim>
					<dim>24</dim>
					<dim>42</dim>
				</port>
			</input>
			<output>
				<port id="1">
					<dim>1</dim>
					<dim>224</dim>
					<dim>24</dim>
					<dim>42</dim>
				</port>
			</output>
		</layer>
		<layer name="conv5_5/sep" type="Convolution" precision="FP32" id="47">
			<data dilations="1,1" group="1" kernel="1,1" output="184" pads_begin="0,0" pads_end="0,0" quantization_level="I8" strides="1,1" />
			<input>
				<port id="0">
					<dim>1</dim>
					<dim>224</dim>
					<dim>24</dim>
					<dim>42</dim>
				</port>
			</input>
			<output>
				<port id="1">
					<dim>1</dim>
					<dim>184</dim>
					<dim>24</dim>
					<dim>42</dim>
				</port>
			</output>
			<blobs>
				<biases offset="2235108" size="736" />
				<weights offset="2235844" size="164864" />
			</blobs>
		</layer>
		<layer name="relu5_5/sep" type="ReLU" precision="FP32" id="48">
			<data negative_slope="0.0" />
			<input>
				<port id="0">
					<dim>1</dim>
					<dim>184</dim>
					<dim>24</dim>
					<dim>42</dim>
				</port>
			</input>
			<output>
				<port id="1">
					<dim>1</dim>
					<dim>184</dim>
					<dim>24</dim>
					<dim>42</dim>
				</port>
			</output>
		</layer>
		<layer name="conv5_6/dw" type="Convolution" precision="FP32" id="49">
			<data dilations="1,1" group="184" kernel="3,3" output="184" pads_begin="1,1" pads_end="1,1" quantization_level="FP32" strides="2,2" />
			<input>
				<port id="0">
					<dim>1</dim>
					<dim>184</dim>
					<dim>24</dim>
					<dim>42</dim>
				</port>
			</input>
			<output>
				<port id="1">
					<dim>1</dim>
					<dim>184</dim>
					<dim>12</dim>
					<dim>21</dim>
				</port>
			</output>
			<blobs>
				<biases offset="2400708" size="736" />
				<weights offset="2401444" size="6624" />
			</blobs>
		</layer>
		<layer name="relu5_6/dw" type="ReLU" precision="FP32" id="50">
			<data negative_slope="0.0" />
			<input>
				<port id="0">
					<dim>1</dim>
					<dim>184</dim>
					<dim>12</dim>
					<dim>21</dim>
				</port>
			</input>
			<output>
				<port id="1">
					<dim>1</dim>
					<dim>184</dim>
					<dim>12</dim>
					<dim>21</dim>
				</port>
			</output>
		</layer>
		<layer name="conv5_6/sep" type="Convolution" precision="FP32" id="51">
			<data dilations="1,1" group="1" kernel="1,1" output="224" pads_begin="0,0" pads_end="0,0" quantization_level="I8" strides="1,1" />
			<input>
				<port id="0">
					<dim>1</dim>
					<dim>184</dim>
					<dim>12</dim>
					<dim>21</dim>
				</port>
			</input>
			<output>
				<port id="1">
					<dim>1</dim>
					<dim>224</dim>
					<dim>12</dim>
					<dim>21</dim>
				</port>
			</output>
			<blobs>
				<biases offset="2408068" size="896" />
				<weights offset="2408964" size="164864" />
			</blobs>
		</layer>
		<layer name="relu5_6/sep" type="ReLU" precision="FP32" id="52">
			<data negative_slope="0.0" />
			<input>
				<port id="0">
					<dim>1</dim>
					<dim>224</dim>
					<dim>12</dim>
					<dim>21</dim>
				</port>
			</input>
			<output>
				<port id="1">
					<dim>1</dim>
					<dim>224</dim>
					<dim>12</dim>
					<dim>21</dim>
				</port>
			</output>
		</layer>
		<layer name="conv6/dw" type="Convolution" precision="FP32" id="53">
			<data dilations="1,1" group="224" kernel="3,3" output="224" pads_begin="1,1" pads_end="1,1" quantization_level="I8" strides="1,1" />
			<input>
				<port id="0">
					<dim>1</dim>
					<dim>224</dim>
					<dim>12</dim>
					<dim>21</dim>
				</port>
			</input>
			<output>
				<port id="1">
					<dim>1</dim>
					<dim>224</dim>
					<dim>12</dim>
					<dim>21</dim>
				</port>
			</output>
			<blobs>
				<biases offset="2573828" size="896" />
				<weights offset="2574724" size="8064" />
			</blobs>
		</layer>
		<layer name="relu6/dw" type="ReLU" precision="FP32" id="54">
			<data negative_slope="0.0" />
			<input>
				<port id="0">
					<dim>1</dim>
					<dim>224</dim>
					<dim>12</dim>
					<dim>21</dim>
				</port>
			</input>
			<output>
				<port id="1">
					<dim>1</dim>
					<dim>224</dim>
					<dim>12</dim>
					<dim>21</dim>
				</port>
			</output>
		</layer>
		<layer name="conv6/sep" type="Convolution" precision="FP32" id="55">
			<data dilations="1,1" group="1" kernel="1,1" output="128" pads_begin="0,0" pads_end="0,0" quantization_level="I8" strides="1,1" />
			<input>
				<port id="0">
					<dim>1</dim>
					<dim>224</dim>
					<dim>12</dim>
					<dim>21</dim>
				</port>
			</input>
			<output>
				<port id="1">
					<dim>1</dim>
					<dim>128</dim>
					<dim>12</dim>
					<dim>21</dim>
				</port>
			</output>
			<blobs>
				<biases offset="2582788" size="512" />
				<weights offset="2583300" size="114688" />
			</blobs>
		</layer>
		<layer name="relu6/sep" type="ReLU" precision="FP32" id="56">
			<data negative_slope="0.0" />
			<input>
				<port id="0">
					<dim>1</dim>
					<dim>128</dim>
					<dim>12</dim>
					<dim>21</dim>
				</port>
			</input>
			<output>
				<port id="1">
					<dim>1</dim>
					<dim>128</dim>
					<dim>12</dim>
					<dim>21</dim>
				</port>
			</output>
		</layer>
		<layer name="fc7_mbox_priorbox" type="PriorBox" precision="FP32" id="57">
			<data aspect_ratio="2.0,3.0" clip="0" flip="1" max_size="142.0800018310547" min_size="76.80000305175781" offset="0.5" step="32.0" variance="0.10000000149011612,0.10000000149011612,0.20000000298023224,0.20000000298023224" />
			<input>
				<port id="0">
					<dim>1</dim>
					<dim>128</dim>
					<dim>12</dim>
					<dim>21</dim>
				</port>
				<port id="1">
					<dim>1</dim>
					<dim>3</dim>
					<dim>384</dim>
					<dim>672</dim>
				</port>
			</input>
			<output>
				<port id="2">
					<dim>1</dim>
					<dim>2</dim>
					<dim>6048</dim>
				</port>
			</output>
		</layer>
		<layer name="fc7_mbox_loc" type="Convolution" precision="FP32" id="58">
			<data dilations="1,1" group="1" kernel="3,3" output="24" pads_begin="1,1" pads_end="1,1" quantization_level="I8" strides="1,1" />
			<input>
				<port id="0">
					<dim>1</dim>
					<dim>128</dim>
					<dim>12</dim>
					<dim>21</dim>
				</port>
			</input>
			<output>
				<port id="1">
					<dim>1</dim>
					<dim>24</dim>
					<dim>12</dim>
					<dim>21</dim>
				</port>
			</output>
			<blobs>
				<biases offset="2697988" size="96" />
				<weights offset="2698084" size="110592" />
			</blobs>
		</layer>
		<layer name="fc7_mbox_loc_perm" type="Permute" precision="FP32" id="59">
			<data order="0,2,3,1" />
			<input>
				<port id="0">
					<dim>1</dim>
					<dim>24</dim>
					<dim>12</dim>
					<dim>21</dim>
				</port>
			</input>
			<output>
				<port id="1">
					<dim>1</dim>
					<dim>12</dim>
					<dim>21</dim>
					<dim>24</dim>
				</port>
			</output>
		</layer>
		<layer name="fc7_mbox_loc_flat" type="Flatten" precision="FP32" id="60">
			<data axis="1" end_axis="-1" />
			<input>
				<port id="0">
					<dim>1</dim>
					<dim>12</dim>
					<dim>21</dim>
					<dim>24</dim>
				</port>
			</input>
			<output>
				<port id="1">
					<dim>1</dim>
					<dim>6048</dim>
				</port>
			</output>
		</layer>
		<layer name="conv6_1" type="Convolution" precision="FP32" id="61">
			<data dilations="1,1" group="1" kernel="1,1" output="120" pads_begin="0,0" pads_end="0,0" quantization_level="I8" strides="1,1" />
			<input>
				<port id="0">
					<dim>1</dim>
					<dim>128</dim>
					<dim>12</dim>
					<dim>21</dim>
				</port>
			</input>
			<output>
				<port id="1">
					<dim>1</dim>
					<dim>120</dim>
					<dim>12</dim>
					<dim>21</dim>
				</port>
			</output>
			<blobs>
				<biases offset="2808676" size="480" />
				<weights offset="2809156" size="61440" />
			</blobs>
		</layer>
		<layer name="relu6_1" type="ReLU" precision="FP32" id="62">
			<data negative_slope="0.0" />
			<input>
				<port id="0">
					<dim>1</dim>
					<dim>120</dim>
					<dim>12</dim>
					<dim>21</dim>
				</port>
			</input>
			<output>
				<port id="1">
					<dim>1</dim>
					<dim>120</dim>
					<dim>12</dim>
					<dim>21</dim>
				</port>
			</output>
		</layer>
		<layer name="conv6_2/dw" type="Convolution" precision="FP32" id="63">
			<data dilations="1,1" group="120" kernel="3,3" output="120" pads_begin="1,1" pads_end="1,1" quantization_level="FP32" strides="2,2" />
			<input>
				<port id="0">
					<dim>1</dim>
					<dim>120</dim>
					<dim>12</dim>
					<dim>21</dim>
				</port>
			</input>
			<output>
				<port id="1">
					<dim>1</dim>
					<dim>120</dim>
					<dim>6</dim>
					<dim>11</dim>
				</port>
			</output>
			<blobs>
				<biases offset="2870596" size="480" />
				<weights offset="2871076" size="4320" />
			</blobs>
		</layer>
		<layer name="relu6_2/dw" type="ReLU" precision="FP32" id="64">
			<data negative_slope="0.0" />
			<input>
				<port id="0">
					<dim>1</dim>
					<dim>120</dim>
					<dim>6</dim>
					<dim>11</dim>
				</port>
			</input>
			<output>
				<port id="1">
					<dim>1</dim>
					<dim>120</dim>
					<dim>6</dim>
					<dim>11</dim>
				</port>
			</output>
		</layer>
		<layer name="conv6_2_new" type="Convolution" precision="FP32" id="65">
			<data dilations="1,1" group="1" kernel="1,1" output="152" pads_begin="0,0" pads_end="0,0" quantization_level="I8" strides="1,1" />
			<input>
				<port id="0">
					<dim>1</dim>
					<dim>120</dim>
					<dim>6</dim>
					<dim>11</dim>
				</port>
			</input>
			<output>
				<port id="1">
					<dim>1</dim>
					<dim>152</dim>
					<dim>6</dim>
					<dim>11</dim>
				</port>
			</output>
			<blobs>
				<biases offset="2875396" size="608" />
				<weights offset="2876004" size="72960" />
			</blobs>
		</layer>
		<layer name="relu6_2" type="ReLU" precision="FP32" id="66">
			<data negative_slope="0.0" />
			<input>
				<port id="0">
					<dim>1</dim>
					<dim>152</dim>
					<dim>6</dim>
					<dim>11</dim>
				</port>
			</input>
			<output>
				<port id="1">
					<dim>1</dim>
					<dim>152</dim>
					<dim>6</dim>
					<dim>11</dim>
				</port>
			</output>
		</layer>
		<layer name="conv7_1" type="Convolution" precision="FP32" id="67">
			<data dilations="1,1" group="1" kernel="1,1" output="112" pads_begin="0,0" pads_end="0,0" quantization_level="I8" strides="1,1" />
			<input>
				<port id="0">
					<dim>1</dim>
					<dim>152</dim>
					<dim>6</dim>
					<dim>11</dim>
				</port>
			</input>
			<output>
				<port id="1">
					<dim>1</dim>
					<dim>112</dim>
					<dim>6</dim>
					<dim>11</dim>
				</port>
			</output>
			<blobs>
				<biases offset="2948964" size="448" />
				<weights offset="2949412" size="68096" />
			</blobs>
		</layer>
		<layer name="relu7_1" type="ReLU" precision="FP32" id="68">
			<data negative_slope="0.0" />
			<input>
				<port id="0">
					<dim>1</dim>
					<dim>112</dim>
					<dim>6</dim>
					<dim>11</dim>
				</port>
			</input>
			<output>
				<port id="1">
					<dim>1</dim>
					<dim>112</dim>
					<dim>6</dim>
					<dim>11</dim>
				</port>
			</output>
		</layer>
		<layer name="conv7_2/dw" type="Convolution" precision="FP32" id="69">
			<data dilations="1,1" group="112" kernel="3,3" output="112" pads_begin="1,1" pads_end="1,1" quantization_level="I8" strides="2,2" />
			<input>
				<port id="0">
					<dim>1</dim>
					<dim>112</dim>
					<dim>6</dim>
					<dim>11</dim>
				</port>
			</input>
			<output>
				<port id="1">
					<dim>1</dim>
					<dim>112</dim>
					<dim>3</dim>
					<dim>6</dim>
				</port>
			</output>
			<blobs>
				<biases offset="3017508" size="448" />
				<weights offset="3017956" size="4032" />
			</blobs>
		</layer>
		<layer name="relu7_2/dw" type="ReLU" precision="FP32" id="70">
			<data negative_slope="0.0" />
			<input>
				<port id="0">
					<dim>1</dim>
					<dim>112</dim>
					<dim>3</dim>
					<dim>6</dim>
				</port>
			</input>
			<output>
				<port id="1">
					<dim>1</dim>
					<dim>112</dim>
					<dim>3</dim>
					<dim>6</dim>
				</port>
			</output>
		</layer>
		<layer name="conv7_2_new" type="Convolution" precision="FP32" id="71">
			<data dilations="1,1" group="1" kernel="1,1" output="168" pads_begin="0,0" pads_end="0,0" quantization_level="I8" strides="1,1" />
			<input>
				<port id="0">
					<dim>1</dim>
					<dim>112</dim>
					<dim>3</dim>
					<dim>6</dim>
				</port>
			</input>
			<output>
				<port id="1">
					<dim>1</dim>
					<dim>168</dim>
					<dim>3</dim>
					<dim>6</dim>
				</port>
			</output>
			<blobs>
				<biases offset="3021988" size="672" />
				<weights offset="3022660" size="75264" />
			</blobs>
		</layer>
		<layer name="relu7_2" type="ReLU" precision="FP32" id="72">
			<data negative_slope="0.0" />
			<input>
				<port id="0">
					<dim>1</dim>
					<dim>168</dim>
					<dim>3</dim>
					<dim>6</dim>
				</port>
			</input>
			<output>
				<port id="1">
					<dim>1</dim>
					<dim>168</dim>
					<dim>3</dim>
					<dim>6</dim>
				</port>
			</output>
		</layer>
		<layer name="conv8_1" type="Convolution" precision="FP32" id="73">
			<data dilations="1,1" group="1" kernel="1,1" output="120" pads_begin="0,0" pads_end="0,0" quantization_level="I8" strides="1,1" />
			<input>
				<port id="0">
					<dim>1</dim>
					<dim>168</dim>
					<dim>3</dim>
					<dim>6</dim>
				</port>
			</input>
			<output>
				<port id="1">
					<dim>1</dim>
					<dim>120</dim>
					<dim>3</dim>
					<dim>6</dim>
				</port>
			</output>
			<blobs>
				<biases offset="3097924" size="480" />
				<weights offset="3098404" size="80640" />
			</blobs>
		</layer>
		<layer name="relu8_1" type="ReLU" precision="FP32" id="74">
			<data negative_slope="0.0" />
			<input>
				<port id="0">
					<dim>1</dim>
					<dim>120</dim>
					<dim>3</dim>
					<dim>6</dim>
				</port>
			</input>
			<output>
				<port id="1">
					<dim>1</dim>
					<dim>120</dim>
					<dim>3</dim>
					<dim>6</dim>
				</port>
			</output>
		</layer>
		<layer name="conv8_2/dw" type="Convolution" precision="FP32" id="75">
			<data dilations="1,1" group="120" kernel="3,3" output="120" pads_begin="1,1" pads_end="1,1" quantization_level="FP32" strides="2,2" />
			<input>
				<port id="0">
					<dim>1</dim>
					<dim>120</dim>
					<dim>3</dim>
					<dim>6</dim>
				</port>
			</input>
			<output>
				<port id="1">
					<dim>1</dim>
					<dim>120</dim>
					<dim>2</dim>
					<dim>3</dim>
				</port>
			</output>
			<blobs>
				<biases offset="3179044" size="480" />
				<weights offset="3179524" size="4320" />
			</blobs>
		</layer>
		<layer name="relu8_2/dw" type="ReLU" precision="FP32" id="76">
			<data negative_slope="0.0" />
			<input>
				<port id="0">
					<dim>1</dim>
					<dim>120</dim>
					<dim>2</dim>
					<dim>3</dim>
				</port>
			</input>
			<output>
				<port id="1">
					<dim>1</dim>
					<dim>120</dim>
					<dim>2</dim>
					<dim>3</dim>
				</port>
			</output>
		</layer>
		<layer name="conv8_2_new" type="Convolution" precision="FP32" id="77">
			<data dilations="1,1" group="1" kernel="1,1" output="200" pads_begin="0,0" pads_end="0,0" quantization_level="I8" strides="1,1" />
			<input>
				<port id="0">
					<dim>1</dim>
					<dim>120</dim>
					<dim>2</dim>
					<dim>3</dim>
				</port>
			</input>
			<output>
				<port id="1">
					<dim>1</dim>
					<dim>200</dim>
					<dim>2</dim>
					<dim>3</dim>
				</port>
			</output>
			<blobs>
				<biases offset="3183844" size="800" />
				<weights offset="3184644" size="96000" />
			</blobs>
		</layer>
		<layer name="relu8_2" type="ReLU" precision="FP32" id="78">
			<data negative_slope="0.0" />
			<input>
				<port id="0">
					<dim>1</dim>
					<dim>200</dim>
					<dim>2</dim>
					<dim>3</dim>
				</port>
			</input>
			<output>
				<port id="1">
					<dim>1</dim>
					<dim>200</dim>
					<dim>2</dim>
					<dim>3</dim>
				</port>
			</output>
		</layer>
		<layer name="conv9_1" type="Convolution" precision="FP32" id="79">
			<data dilations="1,1" group="1" kernel="1,1" output="64" pads_begin="0,0" pads_end="0,0" quantization_level="I8" strides="1,1" />
			<input>
				<port id="0">
					<dim>1</dim>
					<dim>200</dim>
					<dim>2</dim>
					<dim>3</dim>
				</port>
			</input>
			<output>
				<port id="1">
					<dim>1</dim>
					<dim>64</dim>
					<dim>2</dim>
					<dim>3</dim>
				</port>
			</output>
			<blobs>
				<biases offset="3280644" size="256" />
				<weights offset="3280900" size="51200" />
			</blobs>
		</layer>
		<layer name="relu9_1" type="ReLU" precision="FP32" id="80">
			<data negative_slope="0.0" />
			<input>
				<port id="0">
					<dim>1</dim>
					<dim>64</dim>
					<dim>2</dim>
					<dim>3</dim>
				</port>
			</input>
			<output>
				<port id="1">
					<dim>1</dim>
					<dim>64</dim>
					<dim>2</dim>
					<dim>3</dim>
				</port>
			</output>
		</layer>
		<layer name="conv9_2/dw" type="Convolution" precision="FP32" id="81">
			<data dilations="1,1" group="64" kernel="3,3" output="64" pads_begin="1,1" pads_end="1,1" quantization_level="I8" strides="2,2" />
			<input>
				<port id="0">
					<dim>1</dim>
					<dim>64</dim>
					<dim>2</dim>
					<dim>3</dim>
				</port>
			</input>
			<output>
				<port id="1">
					<dim>1</dim>
					<dim>64</dim>
					<dim>1</dim>
					<dim>2</dim>
				</port>
			</output>
			<blobs>
				<biases offset="3332100" size="256" />
				<weights offset="3332356" size="2304" />
			</blobs>
		</layer>
		<layer name="relu9_2/dw" type="ReLU" precision="FP32" id="82">
			<data negative_slope="0.0" />
			<input>
				<port id="0">
					<dim>1</dim>
					<dim>64</dim>
					<dim>1</dim>
					<dim>2</dim>
				</port>
			</input>
			<output>
				<port id="1">
					<dim>1</dim>
					<dim>64</dim>
					<dim>1</dim>
					<dim>2</dim>
				</port>
			</output>
		</layer>
		<layer name="conv9_2_new" type="Convolution" precision="FP32" id="83">
			<data dilations="1,1" group="1" kernel="1,1" output="128" pads_begin="0,0" pads_end="0,0" quantization_level="I8" strides="1,1" />
			<input>
				<port id="0">
					<dim>1</dim>
					<dim>64</dim>
					<dim>1</dim>
					<dim>2</dim>
				</port>
			</input>
			<output>
				<port id="1">
					<dim>1</dim>
					<dim>128</dim>
					<dim>1</dim>
					<dim>2</dim>
				</port>
			</output>
			<blobs>
				<biases offset="3334660" size="512" />
				<weights offset="3335172" size="32768" />
			</blobs>
		</layer>
		<layer name="relu9_2" type="ReLU" precision="FP32" id="84">
			<data negative_slope="0.0" />
			<input>
				<port id="0">
					<dim>1</dim>
					<dim>128</dim>
					<dim>1</dim>
					<dim>2</dim>
				</port>
			</input>
			<output>
				<port id="1">
					<dim>1</dim>
					<dim>128</dim>
					<dim>1</dim>
					<dim>2</dim>
				</port>
			</output>
		</layer>
		<layer name="conv9_2_mbox_priorbox" type="PriorBox" precision="FP32" id="85">
			<data aspect_ratio="2.0" clip="0" flip="1" max_size="403.20001220703125" min_size="337.9200134277344" offset="0.5" step="300.0" variance="0.10000000149011612,0.10000000149011612,0.20000000298023224,0.20000000298023224" />
			<input>
				<port id="0">
					<dim>1</dim>
					<dim>128</dim>
					<dim>1</dim>
					<dim>2</dim>
				</port>
				<port id="1">
					<dim>1</dim>
					<dim>3</dim>
					<dim>384</dim>
					<dim>672</dim>
				</port>
			</input>
			<output>
				<port id="2">
					<dim>1</dim>
					<dim>2</dim>
					<dim>32</dim>
				</port>
			</output>
		</layer>
		<layer name="conv9_2_mbox_loc" type="Convolution" precision="FP32" id="86">
			<data dilations="1,1" group="1" kernel="3,3" output="16" pads_begin="1,1" pads_end="1,1" quantization_level="I8" strides="1,1" />
			<input>
				<port id="0">
					<dim>1</dim>
					<dim>128</dim>
					<dim>1</dim>
					<dim>2</dim>
				</port>
			</input>
			<output>
				<port id="1">
					<dim>1</dim>
					<dim>16</dim>
					<dim>1</dim>
					<dim>2</dim>
				</port>
			</output>
			<blobs>
				<biases offset="3367940" size="64" />
				<weights offset="3368004" size="73728" />
			</blobs>
		</layer>
		<layer name="conv9_2_mbox_loc_perm" type="Permute" precision="FP32" id="87">
			<data order="0,2,3,1" />
			<input>
				<port id="0">
					<dim>1</dim>
					<dim>16</dim>
					<dim>1</dim>
					<dim>2</dim>
				</port>
			</input>
			<output>
				<port id="1">
					<dim>1</dim>
					<dim>1</dim>
					<dim>2</dim>
					<dim>16</dim>
				</port>
			</output>
		</layer>
		<layer name="conv9_2_mbox_loc_flat" type="Flatten" precision="FP32" id="88">
			<data axis="1" end_axis="-1" />
			<input>
				<port id="0">
					<dim>1</dim>
					<dim>1</dim>
					<dim>2</dim>
					<dim>16</dim>
				</port>
			</input>
			<output>
				<port id="1">
					<dim>1</dim>
					<dim>32</dim>
				</port>
			</output>
		</layer>
		<layer name="conv9_2/reduce" type="Convolution" precision="FP32" id="89">
			<data dilations="1,1" group="1" kernel="1,1" output="16" pads_begin="0,0" pads_end="0,0" quantization_level="I8" strides="1,1" />
			<input>
				<port id="0">
					<dim>1</dim>
					<dim>128</dim>
					<dim>1</dim>
					<dim>2</dim>
				</port>
			</input>
			<output>
				<port id="1">
					<dim>1</dim>
					<dim>16</dim>
					<dim>1</dim>
					<dim>2</dim>
				</port>
			</output>
			<blobs>
				<biases offset="3441732" size="64" />
				<weights offset="3441796" size="8192" />
			</blobs>
		</layer>
		<layer name="conv9_2_reduced/relu" type="ReLU" precision="FP32" id="90">
			<data negative_slope="0.0" />
			<input>
				<port id="0">
					<dim>1</dim>
					<dim>16</dim>
					<dim>1</dim>
					<dim>2</dim>
				</port>
			</input>
			<output>
				<port id="1">
					<dim>1</dim>
					<dim>16</dim>
					<dim>1</dim>
					<dim>2</dim>
				</port>
			</output>
		</layer>
		<layer name="pre_conv9_2_mbox_conf_64" type="Convolution" precision="FP32" id="91">
			<data dilations="1,1" group="1" kernel="3,3" output="16" pads_begin="1,1" pads_end="1,1" quantization_level="I8" strides="1,1" />
			<input>
				<port id="0">
					<dim>1</dim>
					<dim>16</dim>
					<dim>1</dim>
					<dim>2</dim>
				</port>
			</input>
			<output>
				<port id="1">
					<dim>1</dim>
					<dim>16</dim>
					<dim>1</dim>
					<dim>2</dim>
				</port>
			</output>
			<blobs>
				<biases offset="3449988" size="64" />
				<weights offset="3450052" size="9216" />
			</blobs>
		</layer>
		<layer name="pre_conv9_2_mbox_conf/relu" type="ReLU" precision="FP32" id="92">
			<data negative_slope="0.0" />
			<input>
				<port id="0">
					<dim>1</dim>
					<dim>16</dim>
					<dim>1</dim>
					<dim>2</dim>
				</port>
			</input>
			<output>
				<port id="1">
					<dim>1</dim>
					<dim>16</dim>
					<dim>1</dim>
					<dim>2</dim>
				</port>
			</output>
		</layer>
		<layer name="conv9_2_mbox_conf_64" type="Convolution" precision="FP32" id="93">
			<data dilations="1,1" group="1" kernel="3,3" output="8" pads_begin="1,1" pads_end="1,1" quantization_level="I8" strides="1,1" />
			<input>
				<port id="0">
					<dim>1</dim>
					<dim>16</dim>
					<dim>1</dim>
					<dim>2</dim>
				</port>
			</input>
			<output>
				<port id="1">
					<dim>1</dim>
					<dim>8</dim>
					<dim>1</dim>
					<dim>2</dim>
				</port>
			</output>
			<blobs>
				<biases offset="3459268" size="32" />
				<weights offset="3459300" size="4608" />
			</blobs>
		</layer>
		<layer name="conv9_2_mbox_conf_perm" type="Permute" precision="FP32" id="94">
			<data order="0,2,3,1" />
			<input>
				<port id="0">
					<dim>1</dim>
					<dim>8</dim>
					<dim>1</dim>
					<dim>2</dim>
				</port>
			</input>
			<output>
				<port id="1">
					<dim>1</dim>
					<dim>1</dim>
					<dim>2</dim>
					<dim>8</dim>
				</port>
			</output>
		</layer>
		<layer name="conv9_2_mbox_conf_flat" type="Flatten" precision="FP32" id="95">
			<data axis="1" end_axis="-1" />
			<input>
				<port id="0">
					<dim>1</dim>
					<dim>1</dim>
					<dim>2</dim>
					<dim>8</dim>
				</port>
			</input>
			<output>
				<port id="1">
					<dim>1</dim>
					<dim>16</dim>
				</port>
			</output>
		</layer>
		<layer name="conv8_2_mbox_priorbox" type="PriorBox" precision="FP32" id="96">
			<data aspect_ratio="2.0" clip="0" flip="1" max_size="337.9200134277344" min_size="272.6400146484375" offset="0.5" step="150.0" variance="0.10000000149011612,0.10000000149011612,0.20000000298023224,0.20000000298023224" />
			<input>
				<port id="0">
					<dim>1</dim>
					<dim>200</dim>
					<dim>2</dim>
					<dim>3</dim>
				</port>
				<port id="1">
					<dim>1</dim>
					<dim>3</dim>
					<dim>384</dim>
					<dim>672</dim>
				</port>
			</input>
			<output>
				<port id="2">
					<dim>1</dim>
					<dim>2</dim>
					<dim>96</dim>
				</port>
			</output>
		</layer>
		<layer name="conv8_2_mbox_loc" type="Convolution" precision="FP32" id="97">
			<data dilations="1,1" group="1" kernel="3,3" output="16" pads_begin="1,1" pads_end="1,1" quantization_level="I8" strides="1,1" />
			<input>
				<port id="0">
					<dim>1</dim>
					<dim>200</dim>
					<dim>2</dim>
					<dim>3</dim>
				</port>
			</input>
			<output>
				<port id="1">
					<dim>1</dim>
					<dim>16</dim>
					<dim>2</dim>
					<dim>3</dim>
				</port>
			</output>
			<blobs>
				<biases offset="3463908" size="64" />
				<weights offset="3463972" size="115200" />
			</blobs>
		</layer>
		<layer name="conv8_2_mbox_loc_perm" type="Permute" precision="FP32" id="98">
			<data order="0,2,3,1" />
			<input>
				<port id="0">
					<dim>1</dim>
					<dim>16</dim>
					<dim>2</dim>
					<dim>3</dim>
				</port>
			</input>
			<output>
				<port id="1">
					<dim>1</dim>
					<dim>2</dim>
					<dim>3</dim>
					<dim>16</dim>
				</port>
			</output>
		</layer>
		<layer name="conv8_2_mbox_loc_flat" type="Flatten" precision="FP32" id="99">
			<data axis="1" end_axis="-1" />
			<input>
				<port id="0">
					<dim>1</dim>
					<dim>2</dim>
					<dim>3</dim>
					<dim>16</dim>
				</port>
			</input>
			<output>
				<port id="1">
					<dim>1</dim>
					<dim>96</dim>
				</port>
			</output>
		</layer>
		<layer name="conv8_2/reduce" type="Convolution" precision="FP32" id="100">
			<data dilations="1,1" group="1" kernel="1,1" output="16" pads_begin="0,0" pads_end="0,0" quantization_level="I8" strides="1,1" />
			<input>
				<port id="0">
					<dim>1</dim>
					<dim>200</dim>
					<dim>2</dim>
					<dim>3</dim>
				</port>
			</input>
			<output>
				<port id="1">
					<dim>1</dim>
					<dim>16</dim>
					<dim>2</dim>
					<dim>3</dim>
				</port>
			</output>
			<blobs>
				<biases offset="3579172" size="64" />
				<weights offset="3579236" size="12800" />
			</blobs>
		</layer>
		<layer name="conv8_2_reduced/relu" type="ReLU" precision="FP32" id="101">
			<data negative_slope="0.0" />
			<input>
				<port id="0">
					<dim>1</dim>
					<dim>16</dim>
					<dim>2</dim>
					<dim>3</dim>
				</port>
			</input>
			<output>
				<port id="1">
					<dim>1</dim>
					<dim>16</dim>
					<dim>2</dim>
					<dim>3</dim>
				</port>
			</output>
		</layer>
		<layer name="pre_conv8_2_mbox_conf_64" type="Convolution" precision="FP32" id="102">
			<data dilations="1,1" group="1" kernel="3,3" output="16" pads_begin="1,1" pads_end="1,1" quantization_level="I8" strides="1,1" />
			<input>
				<port id="0">
					<dim>1</dim>
					<dim>16</dim>
					<dim>2</dim>
					<dim>3</dim>
				</port>
			</input>
			<output>
				<port id="1">
					<dim>1</dim>
					<dim>16</dim>
					<dim>2</dim>
					<dim>3</dim>
				</port>
			</output>
			<blobs>
				<biases offset="3592036" size="64" />
				<weights offset="3592100" size="9216" />
			</blobs>
		</layer>
		<layer name="pre_conv8_2_mbox_conf/relu" type="ReLU" precision="FP32" id="103">
			<data negative_slope="0.0" />
			<input>
				<port id="0">
					<dim>1</dim>
					<dim>16</dim>
					<dim>2</dim>
					<dim>3</dim>
				</port>
			</input>
			<output>
				<port id="1">
					<dim>1</dim>
					<dim>16</dim>
					<dim>2</dim>
					<dim>3</dim>
				</port>
			</output>
		</layer>
		<layer name="conv8_2_mbox_conf_64" type="Convolution" precision="FP32" id="104">
			<data dilations="1,1" group="1" kernel="3,3" output="8" pads_begin="1,1" pads_end="1,1" quantization_level="I8" strides="1,1" />
			<input>
				<port id="0">
					<dim>1</dim>
					<dim>16</dim>
					<dim>2</dim>
					<dim>3</dim>
				</port>
			</input>
			<output>
				<port id="1">
					<dim>1</dim>
					<dim>8</dim>
					<dim>2</dim>
					<dim>3</dim>
				</port>
			</output>
			<blobs>
				<biases offset="3601316" size="32" />
				<weights offset="3601348" size="4608" />
			</blobs>
		</layer>
		<layer name="conv8_2_mbox_conf_perm" type="Permute" precision="FP32" id="105">
			<data order="0,2,3,1" />
			<input>
				<port id="0">
					<dim>1</dim>
					<dim>8</dim>
					<dim>2</dim>
					<dim>3</dim>
				</port>
			</input>
			<output>
				<port id="1">
					<dim>1</dim>
					<dim>2</dim>
					<dim>3</dim>
					<dim>8</dim>
				</port>
			</output>
		</layer>
		<layer name="conv8_2_mbox_conf_flat" type="Flatten" precision="FP32" id="106">
			<data axis="1" end_axis="-1" />
			<input>
				<port id="0">
					<dim>1</dim>
					<dim>2</dim>
					<dim>3</dim>
					<dim>8</dim>
				</port>
			</input>
			<output>
				<port id="1">
					<dim>1</dim>
					<dim>48</dim>
				</port>
			</output>
		</layer>
		<layer name="conv7_2_mbox_priorbox" type="PriorBox" precision="FP32" id="107">
			<data aspect_ratio="2.0,3.0" clip="0" flip="1" max_size="272.6400146484375" min_size="207.36000061035156" offset="0.5" step="100.0" variance="0.10000000149011612,0.10000000149011612,0.20000000298023224,0.20000000298023224" />
			<input>
				<port id="0">
					<dim>1</dim>
					<dim>168</dim>
					<dim>3</dim>
					<dim>6</dim>
				</port>
				<port id="1">
					<dim>1</dim>
					<dim>3</dim>
					<dim>384</dim>
					<dim>672</dim>
				</port>
			</input>
			<output>
				<port id="2">
					<dim>1</dim>
					<dim>2</dim>
					<dim>432</dim>
				</port>
			</output>
		</layer>
		<layer name="conv7_2_mbox_loc" type="Convolution" precision="FP32" id="108">
			<data dilations="1,1" group="1" kernel="3,3" output="24" pads_begin="1,1" pads_end="1,1" quantization_level="I8" strides="1,1" />
			<input>
				<port id="0">
					<dim>1</dim>
					<dim>168</dim>
					<dim>3</dim>
					<dim>6</dim>
				</port>
			</input>
			<output>
				<port id="1">
					<dim>1</dim>
					<dim>24</dim>
					<dim>3</dim>
					<dim>6</dim>
				</port>
			</output>
			<blobs>
				<biases offset="3605956" size="96" />
				<weights offset="3606052" size="145152" />
			</blobs>
		</layer>
		<layer name="conv7_2_mbox_loc_perm" type="Permute" precision="FP32" id="109">
			<data order="0,2,3,1" />
			<input>
				<port id="0">
					<dim>1</dim>
					<dim>24</dim>
					<dim>3</dim>
					<dim>6</dim>
				</port>
			</input>
			<output>
				<port id="1">
					<dim>1</dim>
					<dim>3</dim>
					<dim>6</dim>
					<dim>24</dim>
				</port>
			</output>
		</layer>
		<layer name="conv7_2_mbox_loc_flat" type="Flatten" precision="FP32" id="110">
			<data axis="1" end_axis="-1" />
			<input>
				<port id="0">
					<dim>1</dim>
					<dim>3</dim>
					<dim>6</dim>
					<dim>24</dim>
				</port>
			</input>
			<output>
				<port id="1">
					<dim>1</dim>
					<dim>432</dim>
				</port>
			</output>
		</layer>
		<layer name="conv7_2/reduce" type="Convolution" precision="FP32" id="111">
			<data dilations="1,1" group="1" kernel="1,1" output="16" pads_begin="0,0" pads_end="0,0" quantization_level="I8" strides="1,1" />
			<input>
				<port id="0">
					<dim>1</dim>
					<dim>168</dim>
					<dim>3</dim>
					<dim>6</dim>
				</port>
			</input>
			<output>
				<port id="1">
					<dim>1</dim>
					<dim>16</dim>
					<dim>3</dim>
					<dim>6</dim>
				</port>
			</output>
			<blobs>
				<biases offset="3751204" size="64" />
				<weights offset="3751268" size="10752" />
			</blobs>
		</layer>
		<layer name="conv7_2_reduced/relu" type="ReLU" precision="FP32" id="112">
			<data negative_slope="0.0" />
			<input>
				<port id="0">
					<dim>1</dim>
					<dim>16</dim>
					<dim>3</dim>
					<dim>6</dim>
				</port>
			</input>
			<output>
				<port id="1">
					<dim>1</dim>
					<dim>16</dim>
					<dim>3</dim>
					<dim>6</dim>
				</port>
			</output>
		</layer>
		<layer name="pre_conv7_2_mbox_conf_64" type="Convolution" precision="FP32" id="113">
			<data dilations="1,1" group="1" kernel="3,3" output="16" pads_begin="1,1" pads_end="1,1" quantization_level="I8" strides="1,1" />
			<input>
				<port id="0">
					<dim>1</dim>
					<dim>16</dim>
					<dim>3</dim>
					<dim>6</dim>
				</port>
			</input>
			<output>
				<port id="1">
					<dim>1</dim>
					<dim>16</dim>
					<dim>3</dim>
					<dim>6</dim>
				</port>
			</output>
			<blobs>
				<biases offset="3762020" size="64" />
				<weights offset="3762084" size="9216" />
			</blobs>
		</layer>
		<layer name="pre_conv7_2_mbox_conf/relu" type="ReLU" precision="FP32" id="114">
			<data negative_slope="0.0" />
			<input>
				<port id="0">
					<dim>1</dim>
					<dim>16</dim>
					<dim>3</dim>
					<dim>6</dim>
				</port>
			</input>
			<output>
				<port id="1">
					<dim>1</dim>
					<dim>16</dim>
					<dim>3</dim>
					<dim>6</dim>
				</port>
			</output>
		</layer>
		<layer name="conv7_2_mbox_conf_64" type="Convolution" precision="FP32" id="115">
			<data dilations="1,1" group="1" kernel="3,3" output="12" pads_begin="1,1" pads_end="1,1" quantization_level="I8" strides="1,1" />
			<input>
				<port id="0">
					<dim>1</dim>
					<dim>16</dim>
					<dim>3</dim>
					<dim>6</dim>
				</port>
			</input>
			<output>
				<port id="1">
					<dim>1</dim>
					<dim>12</dim>
					<dim>3</dim>
					<dim>6</dim>
				</port>
			</output>
			<blobs>
				<biases offset="3771300" size="48" />
				<weights offset="3771348" size="6912" />
			</blobs>
		</layer>
		<layer name="conv7_2_mbox_conf_perm" type="Permute" precision="FP32" id="116">
			<data order="0,2,3,1" />
			<input>
				<port id="0">
					<dim>1</dim>
					<dim>12</dim>
					<dim>3</dim>
					<dim>6</dim>
				</port>
			</input>
			<output>
				<port id="1">
					<dim>1</dim>
					<dim>3</dim>
					<dim>6</dim>
					<dim>12</dim>
				</port>
			</output>
		</layer>
		<layer name="conv7_2_mbox_conf_flat" type="Flatten" precision="FP32" id="117">
			<data axis="1" end_axis="-1" />
			<input>
				<port id="0">
					<dim>1</dim>
					<dim>3</dim>
					<dim>6</dim>
					<dim>12</dim>
				</port>
			</input>
			<output>
				<port id="1">
					<dim>1</dim>
					<dim>216</dim>
				</port>
			</output>
		</layer>
		<layer name="conv6_2_mbox_priorbox" type="PriorBox" precision="FP32" id="118">
			<data aspect_ratio="2.0,3.0" clip="0" flip="1" max_size="207.36000061035156" min_size="142.0800018310547" offset="0.5" step="64.0" variance="0.10000000149011612,0.10000000149011612,0.20000000298023224,0.20000000298023224" />
			<input>
				<port id="0">
					<dim>1</dim>
					<dim>152</dim>
					<dim>6</dim>
					<dim>11</dim>
				</port>
				<port id="1">
					<dim>1</dim>
					<dim>3</dim>
					<dim>384</dim>
					<dim>672</dim>
				</port>
			</input>
			<output>
				<port id="2">
					<dim>1</dim>
					<dim>2</dim>
					<dim>1584</dim>
				</port>
			</output>
		</layer>
		<layer name="conv6_2_mbox_loc" type="Convolution" precision="FP32" id="119">
			<data dilations="1,1" group="1" kernel="3,3" output="24" pads_begin="1,1" pads_end="1,1" quantization_level="I8" strides="1,1" />
			<input>
				<port id="0">
					<dim>1</dim>
					<dim>152</dim>
					<dim>6</dim>
					<dim>11</dim>
				</port>
			</input>
			<output>
				<port id="1">
					<dim>1</dim>
					<dim>24</dim>
					<dim>6</dim>
					<dim>11</dim>
				</port>
			</output>
			<blobs>
				<biases offset="3778260" size="96" />
				<weights offset="3778356" size="131328" />
			</blobs>
		</layer>
		<layer name="conv6_2_mbox_loc_perm" type="Permute" precision="FP32" id="120">
			<data order="0,2,3,1" />
			<input>
				<port id="0">
					<dim>1</dim>
					<dim>24</dim>
					<dim>6</dim>
					<dim>11</dim>
				</port>
			</input>
			<output>
				<port id="1">
					<dim>1</dim>
					<dim>6</dim>
					<dim>11</dim>
					<dim>24</dim>
				</port>
			</output>
		</layer>
		<layer name="conv6_2_mbox_loc_flat" type="Flatten" precision="FP32" id="121">
			<data axis="1" end_axis="-1" />
			<input>
				<port id="0">
					<dim>1</dim>
					<dim>6</dim>
					<dim>11</dim>
					<dim>24</dim>
				</port>
			</input>
			<output>
				<port id="1">
					<dim>1</dim>
					<dim>1584</dim>
				</port>
			</output>
		</layer>
		<layer name="conv6_2/reduce" type="Convolution" precision="FP32" id="122">
			<data dilations="1,1" group="1" kernel="1,1" output="16" pads_begin="0,0" pads_end="0,0" quantization_level="I8" strides="1,1" />
			<input>
				<port id="0">
					<dim>1</dim>
					<dim>152</dim>
					<dim>6</dim>
					<dim>11</dim>
				</port>
			</input>
			<output>
				<port id="1">
					<dim>1</dim>
					<dim>16</dim>
					<dim>6</dim>
					<dim>11</dim>
				</port>
			</output>
			<blobs>
				<biases offset="3909684" size="64" />
				<weights offset="3909748" size="9728" />
			</blobs>
		</layer>
		<layer name="conv6_2/reduced/relu" type="ReLU" precision="FP32" id="123">
			<data negative_slope="0.0" />
			<input>
				<port id="0">
					<dim>1</dim>
					<dim>16</dim>
					<dim>6</dim>
					<dim>11</dim>
				</port>
			</input>
			<output>
				<port id="1">
					<dim>1</dim>
					<dim>16</dim>
					<dim>6</dim>
					<dim>11</dim>
				</port>
			</output>
		</layer>
		<layer name="pre_conv6_2_mbox_conf_64" type="Convolution" precision="FP32" id="124">
			<data dilations="1,1" group="1" kernel="3,3" output="16" pads_begin="1,1" pads_end="1,1" quantization_level="I8" strides="1,1" />
			<input>
				<port id="0">
					<dim>1</dim>
					<dim>16</dim>
					<dim>6</dim>
					<dim>11</dim>
				</port>
			</input>
			<output>
				<port id="1">
					<dim>1</dim>
					<dim>16</dim>
					<dim>6</dim>
					<dim>11</dim>
				</port>
			</output>
			<blobs>
				<biases offset="3919476" size="64" />
				<weights offset="3919540" size="9216" />
			</blobs>
		</layer>
		<layer name="pre_conv6_2_mbox_conf/relu" type="ReLU" precision="FP32" id="125">
			<data negative_slope="0.0" />
			<input>
				<port id="0">
					<dim>1</dim>
					<dim>16</dim>
					<dim>6</dim>
					<dim>11</dim>
				</port>
			</input>
			<output>
				<port id="1">
					<dim>1</dim>
					<dim>16</dim>
					<dim>6</dim>
					<dim>11</dim>
				</port>
			</output>
		</layer>
		<layer name="conv6_2_mbox_conf_64" type="Convolution" precision="FP32" id="126">
			<data dilations="1,1" group="1" kernel="3,3" output="12" pads_begin="1,1" pads_end="1,1" quantization_level="I8" strides="1,1" />
			<input>
				<port id="0">
					<dim>1</dim>
					<dim>16</dim>
					<dim>6</dim>
					<dim>11</dim>
				</port>
			</input>
			<output>
				<port id="1">
					<dim>1</dim>
					<dim>12</dim>
					<dim>6</dim>
					<dim>11</dim>
				</port>
			</output>
			<blobs>
				<biases offset="3928756" size="48" />
				<weights offset="3928804" size="6912" />
			</blobs>
		</layer>
		<layer name="conv6_2_mbox_conf_perm" type="Permute" precision="FP32" id="127">
			<data order="0,2,3,1" />
			<input>
				<port id="0">
					<dim>1</dim>
					<dim>12</dim>
					<dim>6</dim>
					<dim>11</dim>
				</port>
			</input>
			<output>
				<port id="1">
					<dim>1</dim>
					<dim>6</dim>
					<dim>11</dim>
					<dim>12</dim>
				</port>
			</output>
		</layer>
		<layer name="conv6_2_mbox_conf_flat" type="Flatten" precision="FP32" id="128">
			<data axis="1" end_axis="-1" />
			<input>
				<port id="0">
					<dim>1</dim>
					<dim>6</dim>
					<dim>11</dim>
					<dim>12</dim>
				</port>
			</input>
			<output>
				<port id="1">
					<dim>1</dim>
					<dim>792</dim>
				</port>
			</output>
		</layer>
		<layer name="conv6/sep/reduce" type="Convolution" precision="FP32" id="129">
			<data dilations="1,1" group="1" kernel="1,1" output="16" pads_begin="0,0" pads_end="0,0" quantization_level="I8" strides="1,1" />
			<input>
				<port id="0">
					<dim>1</dim>
					<dim>128</dim>
					<dim>12</dim>
					<dim>21</dim>
				</port>
			</input>
			<output>
				<port id="1">
					<dim>1</dim>
					<dim>16</dim>
					<dim>12</dim>
					<dim>21</dim>
				</port>
			</output>
			<blobs>
				<biases offset="3935716" size="64" />
				<weights offset="3935780" size="8192" />
			</blobs>
		</layer>
		<layer name="conv6/sep/reduced/relu" type="ReLU" precision="FP32" id="130">
			<data negative_slope="0.0" />
			<input>
				<port id="0">
					<dim>1</dim>
					<dim>16</dim>
					<dim>12</dim>
					<dim>21</dim>
				</port>
			</input>
			<output>
				<port id="1">
					<dim>1</dim>
					<dim>16</dim>
					<dim>12</dim>
					<dim>21</dim>
				</port>
			</output>
		</layer>
		<layer name="pre_fc7_mbox_conf_64" type="Convolution" precision="FP32" id="131">
			<data dilations="1,1" group="1" kernel="3,3" output="16" pads_begin="1,1" pads_end="1,1" quantization_level="I8" strides="1,1" />
			<input>
				<port id="0">
					<dim>1</dim>
					<dim>16</dim>
					<dim>12</dim>
					<dim>21</dim>
				</port>
			</input>
			<output>
				<port id="1">
					<dim>1</dim>
					<dim>16</dim>
					<dim>12</dim>
					<dim>21</dim>
				</port>
			</output>
			<blobs>
				<biases offset="3943972" size="64" />
				<weights offset="3944036" size="9216" />
			</blobs>
		</layer>
		<layer name="pre_fc7_mbox_conf/relu" type="ReLU" precision="FP32" id="132">
			<data negative_slope="0.0" />
			<input>
				<port id="0">
					<dim>1</dim>
					<dim>16</dim>
					<dim>12</dim>
					<dim>21</dim>
				</port>
			</input>
			<output>
				<port id="1">
					<dim>1</dim>
					<dim>16</dim>
					<dim>12</dim>
					<dim>21</dim>
				</port>
			</output>
		</layer>
		<layer name="fc7_mbox_conf_64" type="Convolution" precision="FP32" id="133">
			<data dilations="1,1" group="1" kernel="3,3" output="12" pads_begin="1,1" pads_end="1,1" quantization_level="I8" strides="1,1" />
			<input>
				<port id="0">
					<dim>1</dim>
					<dim>16</dim>
					<dim>12</dim>
					<dim>21</dim>
				</port>
			</input>
			<output>
				<port id="1">
					<dim>1</dim>
					<dim>12</dim>
					<dim>12</dim>
					<dim>21</dim>
				</port>
			</output>
			<blobs>
				<biases offset="3953252" size="48" />
				<weights offset="3953300" size="6912" />
			</blobs>
		</layer>
		<layer name="fc7_mbox_conf_perm" type="Permute" precision="FP32" id="134">
			<data order="0,2,3,1" />
			<input>
				<port id="0">
					<dim>1</dim>
					<dim>12</dim>
					<dim>12</dim>
					<dim>21</dim>
				</port>
			</input>
			<output>
				<port id="1">
					<dim>1</dim>
					<dim>12</dim>
					<dim>21</dim>
					<dim>12</dim>
				</port>
			</output>
		</layer>
		<layer name="fc7_mbox_conf_flat" type="Flatten" precision="FP32" id="135">
			<data axis="1" end_axis="-1" />
			<input>
				<port id="0">
					<dim>1</dim>
					<dim>12</dim>
					<dim>21</dim>
					<dim>12</dim>
				</port>
			</input>
			<output>
				<port id="1">
					<dim>1</dim>
					<dim>3024</dim>
				</port>
			</output>
		</layer>
		<layer name="conv5_5/sep/reduce" type="Convolution" precision="FP32" id="136">
			<data dilations="1,1" group="1" kernel="1,1" output="16" pads_begin="0,0" pads_end="0,0" quantization_level="I8" strides="1,1" />
			<input>
				<port id="0">
					<dim>1</dim>
					<dim>184</dim>
					<dim>24</dim>
					<dim>42</dim>
				</port>
			</input>
			<output>
				<port id="1">
					<dim>1</dim>
					<dim>16</dim>
					<dim>24</dim>
					<dim>42</dim>
				</port>
			</output>
			<blobs>
				<biases offset="3960212" size="64" />
				<weights offset="3960276" size="11776" />
			</blobs>
		</layer>
		<layer name="conv5_5/sep/reduced/relu" type="ReLU" precision="FP32" id="137">
			<data negative_slope="0.0" />
			<input>
				<port id="0">
					<dim>1</dim>
					<dim>16</dim>
					<dim>24</dim>
					<dim>42</dim>
				</port>
			</input>
			<output>
				<port id="1">
					<dim>1</dim>
					<dim>16</dim>
					<dim>24</dim>
					<dim>42</dim>
				</port>
			</output>
		</layer>
		<layer name="pre_conv4_3_norm_mbox_conf_64" type="Convolution" precision="FP32" id="138">
			<data dilations="1,1" group="1" kernel="3,3" output="16" pads_begin="1,1" pads_end="1,1" quantization_level="I8" strides="1,1" />
			<input>
				<port id="0">
					<dim>1</dim>
					<dim>16</dim>
					<dim>24</dim>
					<dim>42</dim>
				</port>
			</input>
			<output>
				<port id="1">
					<dim>1</dim>
					<dim>16</dim>
					<dim>24</dim>
					<dim>42</dim>
				</port>
			</output>
			<blobs>
				<biases offset="3972052" size="64" />
				<weights offset="3972116" size="9216" />
			</blobs>
		</layer>
		<layer name="pre_conv4_3_norm_mbox_conf/relu" type="ReLU" precision="FP32" id="139">
			<data negative_slope="0.0" />
			<input>
				<port id="0">
					<dim>1</dim>
					<dim>16</dim>
					<dim>24</dim>
					<dim>42</dim>
				</port>
			</input>
			<output>
				<port id="1">
					<dim>1</dim>
					<dim>16</dim>
					<dim>24</dim>
					<dim>42</dim>
				</port>
			</output>
		</layer>
		<layer name="conv4_3_norm_mbox_conf_64" type="Convolution" precision="FP32" id="140">
			<data dilations="1,1" group="1" kernel="3,3" output="8" pads_begin="1,1" pads_end="1,1" quantization_level="I8" strides="1,1" />
			<input>
				<port id="0">
					<dim>1</dim>
					<dim>16</dim>
					<dim>24</dim>
					<dim>42</dim>
				</port>
			</input>
			<output>
				<port id="1">
					<dim>1</dim>
					<dim>8</dim>
					<dim>24</dim>
					<dim>42</dim>
				</port>
			</output>
			<blobs>
				<biases offset="3981332" size="32" />
				<weights offset="3981364" size="4608" />
			</blobs>
		</layer>
		<layer name="conv4_3_norm_mbox_conf_perm" type="Permute" precision="FP32" id="141">
			<data order="0,2,3,1" />
			<input>
				<port id="0">
					<dim>1</dim>
					<dim>8</dim>
					<dim>24</dim>
					<dim>42</dim>
				</port>
			</input>
			<output>
				<port id="1">
					<dim>1</dim>
					<dim>24</dim>
					<dim>42</dim>
					<dim>8</dim>
				</port>
			</output>
		</layer>
		<layer name="conv4_3_norm_mbox_conf_flat" type="Flatten" precision="FP32" id="142">
			<data axis="1" end_axis="-1" />
			<input>
				<port id="0">
					<dim>1</dim>
					<dim>24</dim>
					<dim>42</dim>
					<dim>8</dim>
				</port>
			</input>
			<output>
				<port id="1">
					<dim>1</dim>
					<dim>8064</dim>
				</port>
			</output>
		</layer>
		<layer name="pre_conv4_3_0_norm_mbox_conf_64" type="Convolution" precision="FP32" id="143">
			<data dilations="1,1" group="1" kernel="3,3" output="16" pads_begin="1,1" pads_end="1,1" quantization_level="I8" strides="1,1" />
			<input>
				<port id="0">
					<dim>1</dim>
					<dim>16</dim>
					<dim>24</dim>
					<dim>42</dim>
				</port>
			</input>
			<output>
				<port id="1">
					<dim>1</dim>
					<dim>16</dim>
					<dim>24</dim>
					<dim>42</dim>
				</port>
			</output>
			<blobs>
				<biases offset="3985972" size="64" />
				<weights offset="3986036" size="9216" />
			</blobs>
		</layer>
		<layer name="pre_conv4_3_0_norm_mbox_conf/relu" type="ReLU" precision="FP32" id="144">
			<data negative_slope="0.0" />
			<input>
				<port id="0">
					<dim>1</dim>
					<dim>16</dim>
					<dim>24</dim>
					<dim>42</dim>
				</port>
			</input>
			<output>
				<port id="1">
					<dim>1</dim>
					<dim>16</dim>
					<dim>24</dim>
					<dim>42</dim>
				</port>
			</output>
		</layer>
		<layer name="conv4_3_0_norm_mbox_conf_64" type="Convolution" precision="FP32" id="145">
			<data dilations="1,1" group="1" kernel="3,3" output="8" pads_begin="1,1" pads_end="1,1" quantization_level="I8" strides="1,1" />
			<input>
				<port id="0">
					<dim>1</dim>
					<dim>16</dim>
					<dim>24</dim>
					<dim>42</dim>
				</port>
			</input>
			<output>
				<port id="1">
					<dim>1</dim>
					<dim>8</dim>
					<dim>24</dim>
					<dim>42</dim>
				</port>
			</output>
			<blobs>
				<biases offset="3995252" size="32" />
				<weights offset="3995284" size="4608" />
			</blobs>
		</layer>
		<layer name="conv4_3_0_norm_mbox_conf_perm" type="Permute" precision="FP32" id="146">
			<data order="0,2,3,1" />
			<input>
				<port id="0">
					<dim>1</dim>
					<dim>8</dim>
					<dim>24</dim>
					<dim>42</dim>
				</port>
			</input>
			<output>
				<port id="1">
					<dim>1</dim>
					<dim>24</dim>
					<dim>42</dim>
					<dim>8</dim>
				</port>
			</output>
		</layer>
		<layer name="conv4_3_0_norm_mbox_conf_flat" type="Flatten" precision="FP32" id="147">
			<data axis="1" end_axis="-1" />
			<input>
				<port id="0">
					<dim>1</dim>
					<dim>24</dim>
					<dim>42</dim>
					<dim>8</dim>
				</port>
			</input>
			<output>
				<port id="1">
					<dim>1</dim>
					<dim>8064</dim>
				</port>
			</output>
		</layer>
		<layer name="mbox_conf_16" type="Concat" precision="FP32" id="148">
			<data axis="1" />
			<input>
				<port id="0">
					<dim>1</dim>
					<dim>8064</dim>
				</port>
				<port id="1">
					<dim>1</dim>
					<dim>8064</dim>
				</port>
				<port id="2">
					<dim>1</dim>
					<dim>3024</dim>
				</port>
				<port id="3">
					<dim>1</dim>
					<dim>792</dim>
				</port>
				<port id="4">
					<dim>1</dim>
					<dim>216</dim>
				</port>
				<port id="5">
					<dim>1</dim>
					<dim>48</dim>
				</port>
				<port id="6">
					<dim>1</dim>
					<dim>16</dim>
				</port>
			</input>
			<output>
				<port id="7">
					<dim>1</dim>
					<dim>20224</dim>
				</port>
			</output>
		</layer>
		<layer name="mbox_conf_reshape" type="Reshape" precision="FP32" id="149">
			<data axis="0" dim="" num_axes="-1" />
			<input>
				<port id="0">
					<dim>1</dim>
					<dim>20224</dim>
				</port>
				<port id="1">
					<dim>3</dim>
				</port>
			</input>
			<output>
				<port id="2">
					<dim>1</dim>
					<dim>10112</dim>
					<dim>2</dim>
				</port>
			</output>
		</layer>
		<layer name="mbox_conf_softmax" type="SoftMax" precision="FP32" id="150">
			<data axis="2" />
			<input>
				<port id="0">
					<dim>1</dim>
					<dim>10112</dim>
					<dim>2</dim>
				</port>
			</input>
			<output>
				<port id="1">
					<dim>1</dim>
					<dim>10112</dim>
					<dim>2</dim>
				</port>
			</output>
		</layer>
		<layer name="mbox_conf_flatten" type="Flatten" precision="FP32" id="151">
			<data axis="1" end_axis="-1" />
			<input>
				<port id="0">
					<dim>1</dim>
					<dim>10112</dim>
					<dim>2</dim>
				</port>
			</input>
			<output>
				<port id="1">
					<dim>1</dim>
					<dim>20224</dim>
				</port>
			</output>
		</layer>
		<layer name="conv4_3_norm_mbox_priorbox" type="PriorBox" precision="FP32" id="152">
			<data aspect_ratio="2.0" clip="0" flip="1" max_size="76.80000305175781" min_size="38.400001525878906" offset="0.5" step="16.0" variance="0.10000000149011612,0.10000000149011612,0.20000000298023224,0.20000000298023224" />
			<input>
				<port id="0">
					<dim>1</dim>
					<dim>184</dim>
					<dim>24</dim>
					<dim>42</dim>
				</port>
				<port id="1">
					<dim>1</dim>
					<dim>3</dim>
					<dim>384</dim>
					<dim>672</dim>
				</port>
			</input>
			<output>
				<port id="2">
					<dim>1</dim>
					<dim>2</dim>
					<dim>16128</dim>
				</port>
			</output>
		</layer>
		<layer name="conv4_3_norm_mbox_loc" type="Convolution" precision="FP32" id="153">
			<data dilations="1,1" group="1" kernel="3,3" output="16" pads_begin="1,1" pads_end="1,1" quantization_level="I8" strides="1,1" />
			<input>
				<port id="0">
					<dim>1</dim>
					<dim>184</dim>
					<dim>24</dim>
					<dim>42</dim>
				</port>
			</input>
			<output>
				<port id="1">
					<dim>1</dim>
					<dim>16</dim>
					<dim>24</dim>
					<dim>42</dim>
				</port>
			</output>
			<blobs>
				<biases offset="3999892" size="64" />
				<weights offset="3999956" size="105984" />
			</blobs>
		</layer>
		<layer name="conv4_3_norm_mbox_loc_perm" type="Permute" precision="FP32" id="154">
			<data order="0,2,3,1" />
			<input>
				<port id="0">
					<dim>1</dim>
					<dim>16</dim>
					<dim>24</dim>
					<dim>42</dim>
				</port>
			</input>
			<output>
				<port id="1">
					<dim>1</dim>
					<dim>24</dim>
					<dim>42</dim>
					<dim>16</dim>
				</port>
			</output>
		</layer>
		<layer name="conv4_3_norm_mbox_loc_flat" type="Flatten" precision="FP32" id="155">
			<data axis="1" end_axis="-1" />
			<input>
				<port id="0">
					<dim>1</dim>
					<dim>24</dim>
					<dim>42</dim>
					<dim>16</dim>
				</port>
			</input>
			<output>
				<port id="1">
					<dim>1</dim>
					<dim>16128</dim>
				</port>
			</output>
		</layer>
		<layer name="conv4_3_0_norm_mbox_priorbox" type="PriorBox" precision="FP32" id="156">
			<data aspect_ratio="2.0" clip="0" flip="1" max_size="38.400001525878906" min_size="16.0" offset="0.5" step="16.0" variance="0.10000000149011612,0.10000000149011612,0.20000000298023224,0.20000000298023224" />
			<input>
				<port id="0">
					<dim>1</dim>
					<dim>184</dim>
					<dim>24</dim>
					<dim>42</dim>
				</port>
				<port id="1">
					<dim>1</dim>
					<dim>3</dim>
					<dim>384</dim>
					<dim>672</dim>
				</port>
			</input>
			<output>
				<port id="2">
					<dim>1</dim>
					<dim>2</dim>
					<dim>16128</dim>
				</port>
			</output>
		</layer>
		<layer name="mbox_priorbox" type="Concat" precision="FP32" id="157">
			<data axis="2" />
			<input>
				<port id="0">
					<dim>1</dim>
					<dim>2</dim>
					<dim>16128</dim>
				</port>
				<port id="1">
					<dim>1</dim>
					<dim>2</dim>
					<dim>16128</dim>
				</port>
				<port id="2">
					<dim>1</dim>
					<dim>2</dim>
					<dim>6048</dim>
				</port>
				<port id="3">
					<dim>1</dim>
					<dim>2</dim>
					<dim>1584</dim>
				</port>
				<port id="4">
					<dim>1</dim>
					<dim>2</dim>
					<dim>432</dim>
				</port>
				<port id="5">
					<dim>1</dim>
					<dim>2</dim>
					<dim>96</dim>
				</port>
				<port id="6">
					<dim>1</dim>
					<dim>2</dim>
					<dim>32</dim>
				</port>
			</input>
			<output>
				<port id="7">
					<dim>1</dim>
					<dim>2</dim>
					<dim>40448</dim>
				</port>
			</output>
		</layer>
		<layer name="conv4_3_0_norm_mbox_loc" type="Convolution" precision="FP32" id="158">
			<data dilations="1,1" group="1" kernel="3,3" output="16" pads_begin="1,1" pads_end="1,1" quantization_level="I8" strides="1,1" />
			<input>
				<port id="0">
					<dim>1</dim>
					<dim>184</dim>
					<dim>24</dim>
					<dim>42</dim>
				</port>
			</input>
			<output>
				<port id="1">
					<dim>1</dim>
					<dim>16</dim>
					<dim>24</dim>
					<dim>42</dim>
				</port>
			</output>
			<blobs>
				<biases offset="4105940" size="64" />
				<weights offset="4106004" size="105984" />
			</blobs>
		</layer>
		<layer name="conv4_3_0_norm_mbox_loc_perm" type="Permute" precision="FP32" id="159">
			<data order="0,2,3,1" />
			<input>
				<port id="0">
					<dim>1</dim>
					<dim>16</dim>
					<dim>24</dim>
					<dim>42</dim>
				</port>
			</input>
			<output>
				<port id="1">
					<dim>1</dim>
					<dim>24</dim>
					<dim>42</dim>
					<dim>16</dim>
				</port>
			</output>
		</layer>
		<layer name="conv4_3_0_norm_mbox_loc_flat" type="Flatten" precision="FP32" id="160">
			<data axis="1" end_axis="-1" />
			<input>
				<port id="0">
					<dim>1</dim>
					<dim>24</dim>
					<dim>42</dim>
					<dim>16</dim>
				</port>
			</input>
			<output>
				<port id="1">
					<dim>1</dim>
					<dim>16128</dim>
				</port>
			</output>
		</layer>
		<layer name="mbox_loc" type="Concat" precision="FP32" id="161">
			<data axis="1" />
			<input>
				<port id="0">
					<dim>1</dim>
					<dim>16128</dim>
				</port>
				<port id="1">
					<dim>1</dim>
					<dim>16128</dim>
				</port>
				<port id="2">
					<dim>1</dim>
					<dim>6048</dim>
				</port>
				<port id="3">
					<dim>1</dim>
					<dim>1584</dim>
				</port>
				<port id="4">
					<dim>1</dim>
					<dim>432</dim>
				</port>
				<port id="5">
					<dim>1</dim>
					<dim>96</dim>
				</port>
				<port id="6">
					<dim>1</dim>
					<dim>32</dim>
				</port>
			</input>
			<output>
				<port id="7">
					<dim>1</dim>
					<dim>40448</dim>
				</port>
			</output>
		</layer>
		<layer name="detection_out" type="DetectionOutput" precision="FP32" id="162">
			<data background_label_id="0" code_type="caffe.PriorBoxParameter.CENTER_SIZE" confidence_threshold="0.009999999776482582" eta="1.0" input_height="1" input_width="1" keep_top_k="200" nms_threshold="0.44999998807907104" normalized="1" num_classes="2" share_location="1" top_k="400" variance_encoded_in_target="0" visualize="False" />
			<input>
				<port id="0">
					<dim>1</dim>
					<dim>40448</dim>
				</port>
				<port id="1">
					<dim>1</dim>
					<dim>20224</dim>
				</port>
				<port id="2">
					<dim>1</dim>
					<dim>2</dim>
					<dim>40448</dim>
				</port>
			</input>
			<output>
				<port id="3">
					<dim>1</dim>
					<dim>1</dim>
					<dim>200</dim>
					<dim>7</dim>
				</port>
			</output>
		</layer>
	</layers>
	<edges>
		<edge from-layer="0" from-port="0" to-layer="149" to-port="1" />
		<edge from-layer="1" from-port="0" to-layer="2" to-port="0" />
		<edge from-layer="2" from-port="1" to-layer="3" to-port="0" />
		<edge from-layer="2" from-port="1" to-layer="156" to-port="1" />
		<edge from-layer="2" from-port="1" to-layer="152" to-port="1" />
		<edge from-layer="2" from-port="1" to-layer="118" to-port="1" />
		<edge from-layer="2" from-port="1" to-layer="107" to-port="1" />
		<edge from-layer="2" from-port="1" to-layer="96" to-port="1" />
		<edge from-layer="2" from-port="1" to-layer="85" to-port="1" />
		<edge from-layer="2" from-port="1" to-layer="57" to-port="1" />
		<edge from-layer="3" from-port="1" to-layer="4" to-port="0" />
		<edge from-layer="4" from-port="1" to-layer="5" to-port="0" />
		<edge from-layer="5" from-port="1" to-layer="6" to-port="0" />
		<edge from-layer="6" from-port="1" to-layer="7" to-port="0" />
		<edge from-layer="7" from-port="1" to-layer="8" to-port="0" />
		<edge from-layer="8" from-port="1" to-layer="9" to-port="0" />
		<edge from-layer="9" from-port="1" to-layer="10" to-port="0" />
		<edge from-layer="10" from-port="1" to-layer="11" to-port="0" />
		<edge from-layer="11" from-port="1" to-layer="12" to-port="0" />
		<edge from-layer="12" from-port="1" to-layer="13" to-port="0" />
		<edge from-layer="13" from-port="1" to-layer="14" to-port="0" />
		<edge from-layer="14" from-port="1" to-layer="15" to-port="0" />
		<edge from-layer="15" from-port="1" to-layer="16" to-port="0" />
		<edge from-layer="16" from-port="1" to-layer="17" to-port="0" />
		<edge from-layer="17" from-port="1" to-layer="18" to-port="0" />
		<edge from-layer="18" from-port="1" to-layer="19" to-port="0" />
		<edge from-layer="19" from-port="1" to-layer="20" to-port="0" />
		<edge from-layer="20" from-port="1" to-layer="21" to-port="0" />
		<edge from-layer="21" from-port="1" to-layer="22" to-port="0" />
		<edge from-layer="22" from-port="1" to-layer="23" to-port="0" />
		<edge from-layer="23" from-port="1" to-layer="24" to-port="0" />
		<edge from-layer="24" from-port="1" to-layer="25" to-port="0" />
		<edge from-layer="25" from-port="1" to-layer="26" to-port="0" />
		<edge from-layer="26" from-port="1" to-layer="27" to-port="0" />
		<edge from-layer="27" from-port="1" to-layer="28" to-port="0" />
		<edge from-layer="28" from-port="1" to-layer="29" to-port="0" />
		<edge from-layer="29" from-port="1" to-layer="30" to-port="0" />
		<edge from-layer="30" from-port="1" to-layer="31" to-port="0" />
		<edge from-layer="31" from-port="1" to-layer="32" to-port="0" />
		<edge from-layer="32" from-port="1" to-layer="33" to-port="0" />
		<edge from-layer="33" from-port="1" to-layer="34" to-port="0" />
		<edge from-layer="34" from-port="1" to-layer="35" to-port="0" />
		<edge from-layer="35" from-port="1" to-layer="36" to-port="0" />
		<edge from-layer="36" from-port="1" to-layer="37" to-port="0" />
		<edge from-layer="37" from-port="1" to-layer="38" to-port="0" />
		<edge from-layer="38" from-port="1" to-layer="39" to-port="0" />
		<edge from-layer="39" from-port="1" to-layer="40" to-port="0" />
		<edge from-layer="40" from-port="1" to-layer="41" to-port="0" />
		<edge from-layer="41" from-port="1" to-layer="42" to-port="0" />
		<edge from-layer="42" from-port="1" to-layer="43" to-port="0" />
		<edge from-layer="43" from-port="1" to-layer="44" to-port="0" />
		<edge from-layer="44" from-port="1" to-layer="45" to-port="0" />
		<edge from-layer="45" from-port="1" to-layer="46" to-port="0" />
		<edge from-layer="46" from-port="1" to-layer="47" to-port="0" />
		<edge from-layer="47" from-port="1" to-layer="48" to-port="0" />
		<edge from-layer="48" from-port="1" to-layer="158" to-port="0" />
		<edge from-layer="48" from-port="1" to-layer="156" to-port="0" />
		<edge from-layer="48" from-port="1" to-layer="153" to-port="0" />
		<edge from-layer="48" from-port="1" to-layer="152" to-port="0" />
		<edge from-layer="48" from-port="1" to-layer="136" to-port="0" />
		<edge from-layer="48" from-port="1" to-layer="49" to-port="0" />
		<edge from-layer="49" from-port="1" to-layer="50" to-port="0" />
		<edge from-layer="50" from-port="1" to-layer="51" to-port="0" />
		<edge from-layer="51" from-port="1" to-layer="52" to-port="0" />
		<edge from-layer="52" from-port="1" to-layer="53" to-port="0" />
		<edge from-layer="53" from-port="1" to-layer="54" to-port="0" />
		<edge from-layer="54" from-port="1" to-layer="55" to-port="0" />
		<edge from-layer="55" from-port="1" to-layer="56" to-port="0" />
		<edge from-layer="56" from-port="1" to-layer="129" to-port="0" />
		<edge from-layer="56" from-port="1" to-layer="61" to-port="0" />
		<edge from-layer="56" from-port="1" to-layer="58" to-port="0" />
		<edge from-layer="56" from-port="1" to-layer="57" to-port="0" />
		<edge from-layer="57" from-port="2" to-layer="157" to-port="2" />
		<edge from-layer="58" from-port="1" to-layer="59" to-port="0" />
		<edge from-layer="59" from-port="1" to-layer="60" to-port="0" />
		<edge from-layer="60" from-port="1" to-layer="161" to-port="2" />
		<edge from-layer="61" from-port="1" to-layer="62" to-port="0" />
		<edge from-layer="62" from-port="1" to-layer="63" to-port="0" />
		<edge from-layer="63" from-port="1" to-layer="64" to-port="0" />
		<edge from-layer="64" from-port="1" to-layer="65" to-port="0" />
		<edge from-layer="65" from-port="1" to-layer="66" to-port="0" />
		<edge from-layer="66" from-port="1" to-layer="122" to-port="0" />
		<edge from-layer="66" from-port="1" to-layer="119" to-port="0" />
		<edge from-layer="66" from-port="1" to-layer="118" to-port="0" />
		<edge from-layer="66" from-port="1" to-layer="67" to-port="0" />
		<edge from-layer="67" from-port="1" to-layer="68" to-port="0" />
		<edge from-layer="68" from-port="1" to-layer="69" to-port="0" />
		<edge from-layer="69" from-port="1" to-layer="70" to-port="0" />
		<edge from-layer="70" from-port="1" to-layer="71" to-port="0" />
		<edge from-layer="71" from-port="1" to-layer="72" to-port="0" />
		<edge from-layer="72" from-port="1" to-layer="111" to-port="0" />
		<edge from-layer="72" from-port="1" to-layer="108" to-port="0" />
		<edge from-layer="72" from-port="1" to-layer="107" to-port="0" />
		<edge from-layer="72" from-port="1" to-layer="73" to-port="0" />
		<edge from-layer="73" from-port="1" to-layer="74" to-port="0" />
		<edge from-layer="74" from-port="1" to-layer="75" to-port="0" />
		<edge from-layer="75" from-port="1" to-layer="76" to-port="0" />
		<edge from-layer="76" from-port="1" to-layer="77" to-port="0" />
		<edge from-layer="77" from-port="1" to-layer="78" to-port="0" />
		<edge from-layer="78" from-port="1" to-layer="100" to-port="0" />
		<edge from-layer="78" from-port="1" to-layer="97" to-port="0" />
		<edge from-layer="78" from-port="1" to-layer="96" to-port="0" />
		<edge from-layer="78" from-port="1" to-layer="79" to-port="0" />
		<edge from-layer="79" from-port="1" to-layer="80" to-port="0" />
		<edge from-layer="80" from-port="1" to-layer="81" to-port="0" />
		<edge from-layer="81" from-port="1" to-layer="82" to-port="0" />
		<edge from-layer="82" from-port="1" to-layer="83" to-port="0" />
		<edge from-layer="83" from-port="1" to-layer="84" to-port="0" />
		<edge from-layer="84" from-port="1" to-layer="89" to-port="0" />
		<edge from-layer="84" from-port="1" to-layer="86" to-port="0" />
		<edge from-layer="84" from-port="1" to-layer="85" to-port="0" />
		<edge from-layer="85" from-port="2" to-layer="157" to-port="6" />
		<edge from-layer="86" from-port="1" to-layer="87" to-port="0" />
		<edge from-layer="87" from-port="1" to-layer="88" to-port="0" />
		<edge from-layer="88" from-port="1" to-layer="161" to-port="6" />
		<edge from-layer="89" from-port="1" to-layer="90" to-port="0" />
		<edge from-layer="90" from-port="1" to-layer="91" to-port="0" />
		<edge from-layer="91" from-port="1" to-layer="92" to-port="0" />
		<edge from-layer="92" from-port="1" to-layer="93" to-port="0" />
		<edge from-layer="93" from-port="1" to-layer="94" to-port="0" />
		<edge from-layer="94" from-port="1" to-layer="95" to-port="0" />
		<edge from-layer="95" from-port="1" to-layer="148" to-port="6" />
		<edge from-layer="96" from-port="2" to-layer="157" to-port="5" />
		<edge from-layer="97" from-port="1" to-layer="98" to-port="0" />
		<edge from-layer="98" from-port="1" to-layer="99" to-port="0" />
		<edge from-layer="99" from-port="1" to-layer="161" to-port="5" />
		<edge from-layer="100" from-port="1" to-layer="101" to-port="0" />
		<edge from-layer="101" from-port="1" to-layer="102" to-port="0" />
		<edge from-layer="102" from-port="1" to-layer="103" to-port="0" />
		<edge from-layer="103" from-port="1" to-layer="104" to-port="0" />
		<edge from-layer="104" from-port="1" to-layer="105" to-port="0" />
		<edge from-layer="105" from-port="1" to-layer="106" to-port="0" />
		<edge from-layer="106" from-port="1" to-layer="148" to-port="5" />
		<edge from-layer="107" from-port="2" to-layer="157" to-port="4" />
		<edge from-layer="108" from-port="1" to-layer="109" to-port="0" />
		<edge from-layer="109" from-port="1" to-layer="110" to-port="0" />
		<edge from-layer="110" from-port="1" to-layer="161" to-port="4" />
		<edge from-layer="111" from-port="1" to-layer="112" to-port="0" />
		<edge from-layer="112" from-port="1" to-layer="113" to-port="0" />
		<edge from-layer="113" from-port="1" to-layer="114" to-port="0" />
		<edge from-layer="114" from-port="1" to-layer="115" to-port="0" />
		<edge from-layer="115" from-port="1" to-layer="116" to-port="0" />
		<edge from-layer="116" from-port="1" to-layer="117" to-port="0" />
		<edge from-layer="117" from-port="1" to-layer="148" to-port="4" />
		<edge from-layer="118" from-port="2" to-layer="157" to-port="3" />
		<edge from-layer="119" from-port="1" to-layer="120" to-port="0" />
		<edge from-layer="120" from-port="1" to-layer="121" to-port="0" />
		<edge from-layer="121" from-port="1" to-layer="161" to-port="3" />
		<edge from-layer="122" from-port="1" to-layer="123" to-port="0" />
		<edge from-layer="123" from-port="1" to-layer="124" to-port="0" />
		<edge from-layer="124" from-port="1" to-layer="125" to-port="0" />
		<edge from-layer="125" from-port="1" to-layer="126" to-port="0" />
		<edge from-layer="126" from-port="1" to-layer="127" to-port="0" />
		<edge from-layer="127" from-port="1" to-layer="128" to-port="0" />
		<edge from-layer="128" from-port="1" to-layer="148" to-port="3" />
		<edge from-layer="129" from-port="1" to-layer="130" to-port="0" />
		<edge from-layer="130" from-port="1" to-layer="131" to-port="0" />
		<edge from-layer="131" from-port="1" to-layer="132" to-port="0" />
		<edge from-layer="132" from-port="1" to-layer="133" to-port="0" />
		<edge from-layer="133" from-port="1" to-layer="134" to-port="0" />
		<edge from-layer="134" from-port="1" to-layer="135" to-port="0" />
		<edge from-layer="135" from-port="1" to-layer="148" to-port="2" />
		<edge from-layer="136" from-port="1" to-layer="137" to-port="0" />
		<edge from-layer="137" from-port="1" to-layer="143" to-port="0" />
		<edge from-layer="137" from-port="1" to-layer="138" to-port="0" />
		<edge from-layer="138" from-port="1" to-layer="139" to-port="0" />
		<edge from-layer="139" from-port="1" to-layer="140" to-port="0" />
		<edge from-layer="140" from-port="1" to-layer="141" to-port="0" />
		<edge from-layer="141" from-port="1" to-layer="142" to-port="0" />
		<edge from-layer="142" from-port="1" to-layer="148" to-port="1" />
		<edge from-layer="143" from-port="1" to-layer="144" to-port="0" />
		<edge from-layer="144" from-port="1" to-layer="145" to-port="0" />
		<edge from-layer="145" from-port="1" to-layer="146" to-port="0" />
		<edge from-layer="146" from-port="1" to-layer="147" to-port="0" />
		<edge from-layer="147" from-port="1" to-layer="148" to-port="0" />
		<edge from-layer="148" from-port="7" to-layer="149" to-port="0" />
		<edge from-layer="149" from-port="2" to-layer="150" to-port="0" />
		<edge from-layer="150" from-port="1" to-layer="151" to-port="0" />
		<edge from-layer="151" from-port="1" to-layer="162" to-port="1" />
		<edge from-layer="152" from-port="2" to-layer="157" to-port="1" />
		<edge from-layer="153" from-port="1" to-layer="154" to-port="0" />
		<edge from-layer="154" from-port="1" to-layer="155" to-port="0" />
		<edge from-layer="155" from-port="1" to-layer="161" to-port="1" />
		<edge from-layer="156" from-port="2" to-layer="157" to-port="0" />
		<edge from-layer="157" from-port="7" to-layer="162" to-port="2" />
		<edge from-layer="158" from-port="1" to-layer="159" to-port="0" />
		<edge from-layer="159" from-port="1" to-layer="160" to-port="0" />
		<edge from-layer="160" from-port="1" to-layer="161" to-port="0" />
		<edge from-layer="161" from-port="7" to-layer="162" to-port="0" />
	</edges>
	<statistics>
		<layer>
			<name>Mul_/Fused_Mul_/FusedScaleShift_</name>
			<min>-1.144000, -1.391000, -1.326000</min>
			<max>2.171000, 1.924000, 1.989000</max>
		</layer>
		<layer>
			<name>conv1</name>
			<min>… -6.891627</min>
			<max>… 6.665816</max>
		</layer>
		<layer>
			<name>conv2_1/dw</name>
			<min>… -2.143595</min>
			<max>… 9.227189</max>
		</layer>
		<layer>
			<name>conv2_1/sep</name>
			<min>… -2.114465</min>
			<max>… 9.840614</max>
		</layer>
		<layer>
			<name>conv2_2/dw</name>
			<min>… -0.031538</min>
			<max>… 11.302382</max>
		</layer>
		<layer>
			<name>conv2_2/sep</name>
			<min>… -1.724023</min>
			<max>… 4.689734</max>
		</layer>
		<layer>
			<name>conv3_1/dw</name>
			<min>… -14.168370</min>
			<max>… 14.971102</max>
		</layer>
		<layer>
			<name>conv3_1/sep</name>
			<min>… -7.964784</min>
			<max>… 7.909648</max>
		</layer>
		<layer>
			<name>conv3_2/dw</name>
			<min>… -6.518445</min>
			<max>… 10.174630</max>
		</layer>
		<layer>
			<name>conv3_2/sep</name>
			<min>… -4.795004</min>
			<max>… 7.180035</max>
		</layer>
		<layer>
			<name>conv4_1/dw</name>
			<min>… -8.731361</min>
			<max>… 7.879743</max>
		</layer>
		<layer>
			<name>conv4_1/sep</name>
			<min>… -6.355644</min>
			<max>… 6.629012</max>
		</layer>
		<layer>
			<name>conv4_2/dw</name>
			<min>… -5.760399</min>
			<max>… 7.814982</max>
		</layer>
		<layer>
			<name>conv4_2/sep</name>
			<min>… -5.382736</min>
			<max>… 5.552253</max>
		</layer>
		<layer>
			<name>conv4_3_0_norm_mbox_conf_64</name>
			<min>-1.602042, -6.199965, -13.880463, -11.726229, -0.405690, -9.689895, -1.544437, -10.045718</min>
			<max>9.672652, 2.016945, 7.530714, 12.306221, 8.535537, 1.817648, 7.678893, 1.405843</max>
		</layer>
		<layer>
			<name>conv4_3_0_norm_mbox_conf_flat</name>
			<min>… -3.675074</min>
			<max>… -1.749125</max>
		</layer>
		<layer>
			<name>conv4_3_0_norm_mbox_conf_perm</name>
			<min>… -9.295901</min>
			<max>… 6.738626</max>
		</layer>
		<layer>
			<name>conv4_3_0_norm_mbox_loc</name>
			<min>-4.042606, -4.348253, -0.179585, -0.352598, -4.505633, -4.405798, -2.497602, -2.615177, -2.774255, -5.748273, -1.902350, 1.320756, -5.411114, -2.913957, 1.568029, -2.069946</min>
			<max>4.044739, 4.176990, 4.329067, 4.757589, 4.747264, 4.335332, 4.259019, 4.064736, 2.762310, 5.546509, 2.295758, 5.713794, 5.323046, 2.789547, 6.284218, 2.918787</max>
		</layer>
		<layer>
			<name>conv4_3_0_norm_mbox_loc_flat</name>
			<min>… -0.989437</min>
			<max>… 0.964461</max>
		</layer>
		<layer>
			<name>conv4_3_0_norm_mbox_loc_perm</name>
			<min>… -4.447213</min>
			<max>… 5.144592</max>
		</layer>
		<layer>
			<name>conv4_3_0_norm_mbox_priorbox</name>
			<min>-0.011442</min>
			<max>1.011442</max>
		</layer>
		<layer>
			<name>conv4_3_norm_mbox_conf_64</name>
			<min>-7.965713, -9.424922, -10.953032, -9.941663, -5.532143, -9.514756, -10.620360, -9.115291</min>
			<max>12.503910, 8.451466, 9.474343, 12.962740, 9.494387, 7.994718, 11.646822, 5.411188</max>
		</layer>
		<layer>
			<name>conv4_3_norm_mbox_conf_flat</name>
			<min>… -5.094266</min>
			<max>… -1.827316</max>
		</layer>
		<layer>
			<name>conv4_3_norm_mbox_conf_perm</name>
			<min>… -8.487313</min>
			<max>… 10.251150</max>
		</layer>
		<layer>
			<name>conv4_3_norm_mbox_loc</name>
			<min>-4.869931, -4.612686, -4.415929, -3.801859, -4.797383, -4.807556, -4.624867, -4.005561, -3.568297, -5.852786, -4.694690, -2.634811, -5.335408, -3.658740, -3.247096, -4.275062</min>
			<max>4.855070, 5.229961, 4.359562, 3.966839, 5.013854, 4.688089, 4.249430, 3.662140, 3.809208, 6.950973, 3.456599, 5.347664, 5.890615, 3.421171, 4.969592, 2.682567</max>
		</layer>
		<layer>
			<name>conv4_3_norm_mbox_loc_flat</name>
			<min>… -2.812217</min>
			<max>… -1.029150</max>
		</layer>
		<layer>
			<name>conv4_3_norm_mbox_loc_perm</name>
			<min>… -5.217499</min>
			<max>… 3.446711</max>
		</layer>
		<layer>
			<name>conv4_3_norm_mbox_priorbox</name>
			<min>-0.049877</min>
			<max>1.049877</max>
		</layer>
		<layer>
			<name>conv5_1/dw</name>
			<min>… -6.975835</min>
			<max>… 6.248757</max>
		</layer>
		<layer>
			<name>conv5_1/sep</name>
			<min>… -6.677432</min>
			<max>… 5.059403</max>
		</layer>
		<layer>
			<name>conv5_2/dw</name>
			<min>… -4.084920</min>
			<max>… 7.425911</max>
		</layer>
		<layer>
			<name>conv5_2/sep</name>
			<min>… -7.541415</min>
			<max>… 6.983694</max>
		</layer>
		<layer>
			<name>conv5_3/dw</name>
			<min>… -4.336990</min>
			<max>… 11.035407</max>
		</layer>
		<layer>
			<name>conv5_3/sep</name>
			<min>… -5.993977</min>
			<max>… 6.374687</max>
		</layer>
		<layer>
			<name>conv5_4/dw</name>
			<min>… -7.781119</min>
			<max>… 8.019533</max>
		</layer>
		<layer>
			<name>conv5_4/sep</name>
			<min>… -5.117762</min>
			<max>… 7.256069</max>
		</layer>
		<layer>
			<name>conv5_5/dw</name>
			<min>… -8.355434</min>
			<max>… 6.945304</max>
		</layer>
		<layer>
			<name>conv5_5/sep</name>
			<min>… -6.338407</min>
			<max>… 3.906132</max>
		</layer>
		<layer>
			<name>conv5_5/sep/reduce</name>
			<min>-1.930719, -0.843112, -0.948059, -1.233778, -2.396069, -1.908135, -2.172251, -2.727005, -0.733209, -1.370526, -1.302619, -1.983799, -2.615706, -0.186110, -0.843427, -2.021120</min>
			<max>3.515547, 1.671593, 3.684670, 2.185179, 5.806023, 6.019656, 5.712008, 5.767037, 1.288705, 2.603329, 4.345535, 4.648938, 5.344375, 0.132358, 7.629164, 6.589456</max>
		</layer>
		<layer>
			<name>conv5_5/sep/reduced/relu</name>
			<min>-0.000000, -0.000000, -0.000000, -0.000000, -0.000000, -0.000000, -0.000000, -0.000000, -0.000000, -0.000000, -0.000000, -0.000000, -0.000000, -0.000000, -0.000000, -0.000000</min>
			<max>3.515547, 1.671593, 3.684670, 2.185179, 5.806023, 6.019656, 5.712008, 5.767037, 1.288705, 2.603329, 4.345535, 4.648938, 5.344375, 0.132358, 7.629164, 6.589456</max>
		</layer>
		<layer>
			<name>conv5_6/dw</name>
			<min>… -1.753208</min>
			<max>… 9.336098</max>
		</layer>
		<layer>
			<name>conv5_6/sep</name>
			<min>… -5.467165</min>
			<max>… 3.477383</max>
		</layer>
		<layer>
			<name>conv6/dw</name>
			<min>… -3.937992</min>
			<max>… 5.362652</max>
		</layer>
		<layer>
			<name>conv6/sep</name>
			<min>… -5.481079</min>
			<max>… 6.846510</max>
		</layer>
		<layer>
			<name>conv6/sep/reduce</name>
			<min>-4.973701, -2.029696, -2.029753, -1.937412, -2.562932, -3.499716, -1.488899, -2.112134, -1.583954, -1.288654, -2.363815, -2.005343, -5.437070, -2.168737, -0.565218, -2.547117</min>
			<max>3.672706, 4.326066, 3.330714, 4.066285, 5.251524, 3.351058, 5.891788, 2.981838, 7.864204, 4.843617, 6.409385, 2.772582, 4.891716, 5.922694, 0.275500, 2.056282</max>
		</layer>
		<layer>
			<name>conv6/sep/reduced/relu</name>
			<min>-0.000000, -0.000000, -0.000000, -0.000000, -0.000000, -0.000000, -0.000000, -0.000000, -0.000000, -0.000000, -0.000000, -0.000000, -0.000000, -0.000000, -0.000000, -0.000000</min>
			<max>3.672706, 4.326066, 3.330714, 4.066285, 5.251524, 3.351058, 5.891788, 2.981838, 7.864204, 4.843617, 6.409385, 2.772582, 4.891716, 5.922694, 0.275500, 2.056282</max>
		</layer>
		<layer>
			<name>conv6_1</name>
			<min>… -4.181822</min>
			<max>… 6.889956</max>
		</layer>
		<layer>
			<name>conv6_2/dw</name>
			<min>… -4.230483</min>
			<max>… 7.642822</max>
		</layer>
		<layer>
			<name>conv6_2/reduce</name>
			<min>-0.918830, -1.241900, -0.972526, -0.515918, -0.423929, -0.525094, -0.060814, -0.012346, -0.063496, -0.942770, -0.098271, -0.996802, -0.334192, -0.568175, -0.482904, -0.742744</min>
			<max>2.291432, 1.359374, 1.872420, 2.121304, 2.484809, 0.605175, -0.060814, 3.571260, -0.063496, 0.793116, 4.449362, 1.679159, 1.918248, 0.342524, 1.682895, 1.438918</max>
		</layer>
		<layer>
			<name>conv6_2/reduced/relu</name>
			<min>-0.000000, -0.000000, -0.000000, -0.000000, -0.000000, -0.000000, -0.000000, -0.000000, -0.000000, -0.000000, -0.000000, -0.000000, -0.000000, -0.000000, -0.000000, -0.000000</min>
			<max>2.291432, 1.359374, 1.872420, 2.121304, 2.484809, 0.605175, -0.000000, 3.571260, -0.000000, 0.793116, 4.449362, 1.679159, 1.918248, 0.342524, 1.682895, 1.438918</max>
		</layer>
		<layer>
			<name>conv6_2_mbox_conf_64</name>
			<min>-2.945272, -6.543048, -1.318434, -5.927521, -4.049160, -5.585085, -0.553442, -7.986700, -2.257763, -6.160428, -0.071885, -8.944901</min>
			<max>7.201047, 2.237804, 7.875314, 4.832982, 6.378587, 3.526045, 7.946380, 1.620217, 6.768043, 1.083517, 9.285917, -0.955440</max>
		</layer>
		<layer>
			<name>conv6_2_mbox_conf_flat</name>
			<min>… -2.633681</min>
			<max>… -1.826826</max>
		</layer>
		<layer>
			<name>conv6_2_mbox_conf_perm</name>
			<min>-4.779008, -7.833955, -8.266520, -8.808568, -5.732076, -3.813713</min>
			<max>5.613572, 8.469379, 8.155745, 8.140369, 5.720918, 4.089653</max>
		</layer>
		<layer>
			<name>conv6_2_mbox_loc</name>
			<min>… -3.413792</min>
			<max>… 0.453277</max>
		</layer>
		<layer>
			<name>conv6_2_mbox_loc_flat</name>
			<min>… -0.630867</min>
			<max>… -0.291452</max>
		</layer>
		<layer>
			<name>conv6_2_mbox_loc_perm</name>
			<min>-3.043394, -3.666232, -3.691705, -3.215247, -2.207547, -2.140563</min>
			<max>2.778828, 3.489789, 3.747798, 2.755722, 2.245203, 1.562999</max>
		</layer>
		<layer>
			<name>conv6_2_mbox_priorbox</name>
			<min>-0.237096</min>
			<max>1.237096</max>
		</layer>
		<layer>
			<name>conv6_2_new</name>
			<min>… -4.592625</min>
			<max>… 1.989600</max>
		</layer>
		<layer>
			<name>conv7_1</name>
			<min>… -3.355793</min>
			<max>… 4.011266</max>
		</layer>
		<layer>
			<name>conv7_2/dw</name>
			<min>… -4.182239</min>
			<max>… 1.972807</max>
		</layer>
		<layer>
			<name>conv7_2/reduce</name>
			<min>-0.048244, -0.551486, -0.537538, -1.705126, -0.843262, -0.881677, -0.095280, -0.060736, -0.438045, -0.247655, -0.551447, -1.109858, -0.530942, -0.609591, -0.817755, -1.127221</min>
			<max>2.564507, 3.431282, 1.094795, 1.388240, 3.000153, 1.051713, -0.095280, -0.060736, 0.834017, 2.377875, 1.315733, 1.117865, 1.241640, 2.268437, 1.010476, 1.283926</max>
		</layer>
		<layer>
			<name>conv7_2_mbox_conf_64</name>
			<min>-2.532083, -5.119808, -2.746530, -5.020488, -2.234905, -5.831872, 0.523219, -5.619939, -1.835249, -6.173562, 1.474539, -7.332074</min>
			<max>6.324022, 3.215179, 6.336965, 3.192788, 6.321604, 4.806404, 6.346687, 0.420027, 5.963172, 1.760568, 7.474591, -1.247593</max>
		</layer>
		<layer>
			<name>conv7_2_mbox_conf_flat</name>
			<min>… -2.797514</min>
			<max>… -1.717297</max>
		</layer>
		<layer>
			<name>conv7_2_mbox_conf_perm</name>
			<min>-5.422280, -7.499244, -5.587644</min>
			<max>5.891494, 7.767226, 6.172574</max>
		</layer>
		<layer>
			<name>conv7_2_mbox_loc</name>
			<min>… -3.911376</min>
			<max>… -0.677859</max>
		</layer>
		<layer>
			<name>conv7_2_mbox_loc_flat</name>
			<min>… -1.935647</min>
			<max>… -1.046480</max>
		</layer>
		<layer>
			<name>conv7_2_mbox_loc_perm</name>
			<min>-3.621425, -3.706793, -2.977239</min>
			<max>2.536521, 3.464289, 2.014365</max>
		</layer>
		<layer>
			<name>conv7_2_mbox_priorbox</name>
			<min>-0.337445</min>
			<max>1.118695</max>
		</layer>
		<layer>
			<name>conv7_2_new</name>
			<min>… -3.351172</min>
			<max>… 4.660887</max>
		</layer>
		<layer>
			<name>conv7_2_reduced/relu</name>
			<min>-0.000000, -0.000000, -0.000000, -0.000000, -0.000000, -0.000000, -0.000000, -0.000000, -0.000000, -0.000000, -0.000000, -0.000000, -0.000000, -0.000000, -0.000000, -0.000000</min>
			<max>2.564507, 3.431282, 1.094795, 1.388240, 3.000153, 1.051713, -0.000000, -0.000000, 0.834017, 2.377875, 1.315733, 1.117865, 1.241640, 2.268437, 1.010476, 1.283926</max>
		</layer>
		<layer>
			<name>conv8_1</name>
			<min>… -3.004928</min>
			<max>… 3.206264</max>
		</layer>
		<layer>
			<name>conv8_2/dw</name>
			<min>… -3.083152</min>
			<max>… 2.047564</max>
		</layer>
		<layer>
			<name>conv8_2/reduce</name>
			<min>-1.109933, -0.045538, -0.409688, -0.282626, -1.264985, -0.823170, -1.138828, -0.820974, -0.353090, 0.253367, -0.693816, -0.691856, -0.623275, -0.576098, -0.132712, 0.031195</min>
			<max>0.831604, -0.045538, 1.154950, 1.972034, 1.093829, 0.430231, 0.498295, 1.607358, 1.296416, 2.911632, 0.945747, 1.243497, 1.044901, 1.176827, 1.139345, 2.190301</max>
		</layer>
		<layer>
			<name>conv8_2_mbox_conf_64</name>
			<min>0.574022, -4.479309, 0.908347, -4.446251, 0.481318, -4.712841, 1.508488, -4.347934</min>
			<max>4.097858, -0.343818, 4.644447, -0.712570, 5.146889, -1.048590, 5.043782, -1.400333</max>
		</layer>
		<layer>
			<name>conv8_2_mbox_conf_flat</name>
			<min>… -3.789233</min>
			<max>… -1.630880</max>
		</layer>
		<layer>
			<name>conv8_2_mbox_conf_perm</name>
			<min>-4.509786, -4.854788</min>
			<max>4.749008, 5.566707</max>
		</layer>
		<layer>
			<name>conv8_2_mbox_loc</name>
			<min>-1.919509, -2.167802, -1.845706, -2.841498, -1.825211, -1.932372, -1.870052, -3.003879, -1.372498, -2.427368, -2.524075, -1.527726, -1.833193, -1.789836, -0.863142, -3.665546</min>
			<max>2.055800, 2.288757, 1.517632, 0.894798, 2.091217, 2.041033, 1.904186, 0.586031, 1.583333, 2.372357, 0.566794, 1.785057, 2.206004, 1.471482, 1.943107, -0.664127</max>
		</layer>
		<layer>
			<name>conv8_2_mbox_loc_flat</name>
			<min>… -3.268148</min>
			<max>… -0.739558</max>
		</layer>
		<layer>
			<name>conv8_2_mbox_loc_perm</name>
			<min>-3.320305, -3.588561</min>
			<max>2.455209, 2.306299</max>
		</layer>
		<layer>
			<name>conv8_2_mbox_priorbox</name>
			<min>-0.306733</min>
			<max>1.087983</max>
		</layer>
		<layer>
			<name>conv8_2_new</name>
			<min>… -2.655112</min>
			<max>… 2.554516</max>
		</layer>
		<layer>
			<name>conv8_2_reduced/relu</name>
			<min>-0.000000, -0.000000, -0.000000, -0.000000, -0.000000, -0.000000, -0.000000, -0.000000, -0.000000, 0.253367, -0.000000, -0.000000, -0.000000, -0.000000, -0.000000, 0.031195</min>
			<max>0.831604, -0.000000, 1.154950, 1.972034, 1.093829, 0.430231, 0.498295, 1.607358, 1.296416, 2.911632, 0.945747, 1.243497, 1.044901, 1.176827, 1.139345, 2.190301</max>
		</layer>
		<layer>
			<name>conv9_1</name>
			<min>… -0.806927</min>
			<max>… 1.548123</max>
		</layer>
		<layer>
			<name>conv9_2/dw</name>
			<min>… -1.575160</min>
			<max>… 1.081266</max>
		</layer>
		<layer>
			<name>conv9_2/reduce</name>
			<min>-1.476002, -1.437547, -0.230602, -0.893721, -1.074377, -2.703220, -0.473538, 0.818828, 0.305922, -0.524448, -0.710109, -0.851500, -1.181016, -1.099627, -1.149117, -0.053739</min>
			<max>1.059267, 1.960470, 1.172897, 1.982532, 1.706936, 1.151935, 1.323424, 1.731990, 2.971315, 2.203565, 2.271646, 0.338244, 1.046248, 0.807947, 1.192524, 2.856714</max>
		</layer>
		<layer>
			<name>conv9_2_mbox_conf_64</name>
			<min>1.330782, -3.569207, 1.345318, -3.733664, 1.300634, -2.890435, 1.549086, -3.461526</min>
			<max>3.232270, -1.521624, 3.594560, -1.367463, 2.668878, -1.646262, 3.409970, -1.638913</max>
		</layer>
		<layer>
			<name>conv9_2_mbox_conf_flat</name>
			<min>1.508323, -3.069413, 1.443797, -3.559746, 1.651008, -2.398464, 1.564838, -3.137829, 1.367638, -3.569207, 1.444642, -3.534503, 1.300634, -2.843360, 1.609412, -3.461526</min>
			<max>2.861450, -1.542322, 3.385327, -1.559937, 2.423742, -1.696716, 3.225986, -1.704167, 3.221076, -1.630306, 3.547676, -1.393351, 2.575393, -1.723886, 3.409970, -1.665686</max>
		</layer>
		<layer>
			<name>conv9_2_mbox_conf_perm</name>
			<min>-3.733664</min>
			<max>3.594560</max>
		</layer>
		<layer>
			<name>conv9_2_mbox_loc</name>
			<min>-2.053350, -0.478126, -1.475358, -2.486164, -2.076310, -0.197328, -1.577168, -2.218154, -2.308218, -0.815894, -2.488600, -1.103020, -1.329211, 0.448861, -0.103858, -3.300659</min>
			<max>2.266793, 1.170638, 1.364181, 0.245536, 2.285946, 1.229307, 1.565621, 0.003430, 2.152964, 1.411880, 0.253811, 1.772307, 1.407744, 1.074398, 1.809826, -1.309664</max>
		</layer>
		<layer>
			<name>conv9_2_mbox_loc_flat</name>
			<min>… -3.300659</min>
			<max>… -1.333537</max>
		</layer>
		<layer>
			<name>conv9_2_mbox_loc_perm</name>
			<min>-3.339706</min>
			<max>2.404058</max>
		</layer>
		<layer>
			<name>conv9_2_mbox_priorbox</name>
			<min>-0.231629</min>
			<max>1.025217</max>
		</layer>
		<layer>
			<name>conv9_2_new</name>
			<min>… -2.057838</min>
			<max>… 2.758609</max>
		</layer>
		<layer>
			<name>conv9_2_reduced/relu</name>
			<min>-0.000000, -0.000000, -0.000000, -0.000000, -0.000000, -0.000000, -0.000000, 0.818828, 0.305922, -0.000000, -0.000000, -0.000000, -0.000000, -0.000000, -0.000000, -0.000000</min>
			<max>1.059267, 1.960470, 1.172897, 1.982532, 1.706936, 1.151935, 1.323424, 1.731990, 2.971315, 2.203565, 2.271646, 0.338244, 1.046248, 0.807947, 1.192524, 2.856714</max>
		</layer>
		<layer>
			<name>data</name>
			<min>0.000000, 0.000000, 0.000000</min>
			<max>255.000000, 255.000000, 255.000000</max>
		</layer>
		<layer>
			<name>detection_out</name>
			<min>-1.000000</min>
			<max>1.194506</max>
		</layer>
		<layer>
			<name>fc7_mbox_conf_64</name>
			<min>-7.701793, -7.000329, -3.593120, -6.084785, -6.881112, -7.668137, -3.860198, -5.669271, -3.535449, -7.308507, -2.302961, -6.543049</min>
			<max>5.315245, 5.102179, 7.686731, 5.470383, 4.745501, 4.741890, 6.957252, 6.394647, 6.154149, 2.681840, 5.910908, 1.753306</max>
		</layer>
		<layer>
			<name>fc7_mbox_conf_flat</name>
			<min>… -3.890663</min>
			<max>… -1.881734</max>
		</layer>
		<layer>
			<name>fc7_mbox_conf_perm</name>
			<min>-6.922092, -7.015026, -7.494368, -7.206016, -6.881112, -5.939491, -5.429968, -5.308377, -4.744915, -4.744164, -6.307773, -5.994993</min>
			<max>6.188763, 7.354484, 6.750454, 6.694756, 6.385706, 6.407223, 6.072606, 5.338154, 5.603348, 6.330496, 6.296257, 5.749301</max>
		</layer>
		<layer>
			<name>fc7_mbox_loc</name>
			<min>… -4.766839</min>
			<max>… 0.521762</max>
		</layer>
		<layer>
			<name>fc7_mbox_loc_flat</name>
			<min>… -2.910192</min>
			<max>… -1.662093</max>
		</layer>
		<layer>
			<name>fc7_mbox_loc_perm</name>
			<min>-4.059390, -4.575738, -4.499062, -4.662724, -4.434340, -4.480747, -4.336125, -4.143913, -4.138525, -3.959159, -7.410387, -4.780338</min>
			<max>2.972636, 3.547179, 3.622491, 3.466153, 3.493517, 3.195367, 2.970812, 3.074683, 2.514953, 2.250215, 4.839256, 4.687832</max>
		</layer>
		<layer>
			<name>fc7_mbox_priorbox</name>
			<min>-0.131538</min>
			<max>1.131538</max>
		</layer>
		<layer>
			<name>mbox_conf_16</name>
			<min>… -3.461526</min>
			<max>… -1.665686</max>
		</layer>
		<layer>
			<name>mbox_conf_flatten</name>
			<min>… 0.001036</min>
			<max>… 0.036694</max>
		</layer>
		<layer>
			<name>mbox_conf_reshape</name>
			<min>-14.066220</min>
			<max>14.547014</max>
		</layer>
		<layer>
			<name>mbox_conf_softmax</name>
			<min>0.000000</min>
			<max>1.000000</max>
		</layer>
		<layer>
			<name>mbox_loc</name>
			<min>… -3.300659</min>
			<max>… -1.333537</max>
		</layer>
		<layer>
			<name>mbox_priorbox</name>
			<min>-0.337445</min>
			<max>1.237096</max>
		</layer>
		<layer>
			<name>pre_conv4_3_0_norm_mbox_conf/relu</name>
			<min>-0.000000, -0.000000, -0.000000, -0.000000, -0.000000, -0.000000, -0.000000, -0.000000, -0.000000, -0.000000, -0.000000, -0.000000, -0.000000, -0.000000, -0.000000, -0.000000</min>
			<max>7.182365, 10.801260, 4.766159, 8.287211, 5.355743, 13.297259, 13.613030, 8.978311, 8.549792, 9.033551, 9.155087, 2.863068, 8.861507, 11.192270, 10.007242, 6.710175</max>
		</layer>
		<layer>
			<name>pre_conv4_3_0_norm_mbox_conf_64</name>
			<min>-7.641233, -5.335330, -7.715796, -2.535364, -7.128502, -3.909688, -1.605951, -8.583085, -7.133582, -8.373652, -2.526736, -8.026271, -7.859111, -3.752485, -3.683630, -6.610514</min>
			<max>7.182365, 10.801260, 4.766159, 8.287211, 5.355743, 13.297259, 13.613030, 8.978311, 8.549792, 9.033551, 9.155087, 2.863068, 8.861507, 11.192270, 10.007242, 6.710175</max>
		</layer>
		<layer>
			<name>pre_conv4_3_norm_mbox_conf/relu</name>
			<min>-0.000000, -0.000000, -0.000000, -0.000000, -0.000000, -0.000000, -0.000000, -0.000000, -0.000000, -0.000000, -0.000000, -0.000000, -0.000000, -0.000000, -0.000000, -0.000000</min>
			<max>6.933002, 9.890721, 4.448720, 8.997210, 6.188211, 12.663244, 15.113672, 8.667815, 6.529862, 8.156498, 8.714943, 2.851373, 8.975077, 10.124341, 9.831953, 7.372209</max>
		</layer>
		<layer>
			<name>pre_conv4_3_norm_mbox_conf_64</name>
			<min>-7.760381, -5.933248, -6.579195, -3.152339, -8.421100, -4.986578, -2.551457, -8.931865, -6.353960, -7.948464, -2.587612, -7.765636, -8.260193, -4.056590, -4.097775, -8.372207</min>
			<max>6.933002, 9.890721, 4.448720, 8.997210, 6.188211, 12.663244, 15.113672, 8.667815, 6.529862, 8.156498, 8.714943, 2.851373, 8.975077, 10.124341, 9.831953, 7.372209</max>
		</layer>
		<layer>
			<name>pre_conv6_2_mbox_conf/relu</name>
			<min>-0.000000, -0.000000, -0.000000, -0.000000, -0.000000, -0.000000, -0.000000, -0.000000, -0.000000, -0.000000, -0.000000, -0.000000, -0.000000, -0.000000, -0.000000, -0.000000</min>
			<max>5.683487, 7.904617, 9.728234, 4.016706, 4.494798, 9.560068, 5.173280, 5.726174, 3.934834, 3.807117, 5.548793, 4.675591, 6.115331, 5.975192, 8.842320, 5.552983</max>
		</layer>
		<layer>
			<name>pre_conv6_2_mbox_conf_64</name>
			<min>-3.430066, -3.265249, -3.288252, -3.045472, -6.113701, -4.525219, -3.300683, -2.400941, -7.191112, -3.850095, -4.645731, -4.157708, -5.192350, -2.521815, -3.094619, -3.680209</min>
			<max>5.683487, 7.904617, 9.728234, 4.016706, 4.494798, 9.560068, 5.173280, 5.726174, 3.934834, 3.807117, 5.548793, 4.675591, 6.115331, 5.975192, 8.842320, 5.552983</max>
		</layer>
		<layer>
			<name>pre_conv7_2_mbox_conf/relu</name>
			<min>-0.000000, -0.000000, -0.000000, -0.000000, -0.000000, -0.000000, -0.000000, -0.000000, -0.000000, -0.000000, -0.000000, -0.000000, -0.000000, -0.000000, -0.000000, -0.000000</min>
			<max>7.178141, 5.553919, 6.718789, 5.340441, 5.540446, 3.242269, 8.403652, 4.595812, 3.394070, 5.531020, 4.440091, 3.992317, 4.640748, 3.739563, 6.703280, 5.376265</max>
		</layer>
		<layer>
			<name>pre_conv7_2_mbox_conf_64</name>
			<min>-3.045984, -3.609060, -4.018169, -2.705628, -3.634154, -3.739427, -2.986920, -2.145097, -3.037594, -3.552802, -3.434528, -4.284526, -4.191631, -1.994638, -4.323899, -3.384452</min>
			<max>7.178141, 5.553919, 6.718789, 5.340441, 5.540446, 3.242269, 8.403652, 4.595812, 3.394070, 5.531020, 4.440091, 3.992317, 4.640748, 3.739563, 6.703280, 5.376265</max>
		</layer>
		<layer>
			<name>pre_conv8_2_mbox_conf/relu</name>
			<min>-0.000000, -0.000000, -0.000000, -0.000000, -0.000000, -0.000000, -0.000000, -0.000000, -0.000000, -0.000000, -0.000000, -0.000000, -0.000000, -0.000000, -0.000000, -0.000000</min>
			<max>4.604299, 5.100003, 4.428638, 3.732851, 3.147883, 3.045220, 5.480775, 4.506511, 4.024221, 6.176436, 4.457917, 3.066663, 5.147192, 3.898295, 3.980992, 4.024100</max>
		</layer>
		<layer>
			<name>pre_conv8_2_mbox_conf_64</name>
			<min>-1.345898, -3.992393, -1.810527, -1.701666, -2.953308, -2.798842, -1.698497, -1.937345, -1.907259, -2.382436, -2.290441, -2.006541, -2.201574, -2.121904, -2.783328, -2.150627</min>
			<max>4.604299, 5.100003, 4.428638, 3.732851, 3.147883, 3.045220, 5.480775, 4.506511, 4.024221, 6.176436, 4.457917, 3.066663, 5.147192, 3.898295, 3.980992, 4.024100</max>
		</layer>
		<layer>
			<name>pre_conv9_2_mbox_conf/relu</name>
			<min>-0.000000, -0.000000, -0.000000, -0.000000, -0.000000, -0.000000, -0.000000, -0.000000, -0.000000, -0.000000, -0.000000, -0.000000, -0.000000, -0.000000, -0.000000, -0.000000</min>
			<max>2.458567, 4.679333, 2.422520, 3.683172, 3.387057, 3.480125, 3.122753, 4.356658, 2.442393, 2.975308, 4.689298, 2.800995, 4.314257, 2.861137, 3.354029, 2.199671</max>
		</layer>
		<layer>
			<name>pre_conv9_2_mbox_conf_64</name>
			<min>-1.749721, -1.301449, -1.261079, -1.265731, -1.363454, -1.602468, -1.316832, -1.195121, -1.457369, -1.664185, -1.584392, -2.707874, -1.455936, -2.417071, -2.164727, -2.592935</min>
			<max>2.458567, 4.679333, 2.422520, 3.683172, 3.387057, 3.480125, 3.122753, 4.356658, 2.442393, 2.975308, 4.689298, 2.800995, 4.314257, 2.861137, 3.354029, 2.199671</max>
		</layer>
		<layer>
			<name>pre_fc7_mbox_conf/relu</name>
			<min>-0.000000, -0.000000, -0.000000, -0.000000, -0.000000, -0.000000, -0.000000, -0.000000, -0.000000, -0.000000, -0.000000, -0.000000, -0.000000, -0.000000, -0.000000, -0.000000</min>
			<max>3.302457, 6.819745, 5.884870, 10.053521, 8.185641, 4.040220, 8.932087, 6.608097, 2.413464, 7.365057, 6.599872, 3.554152, 8.895521, 8.915279, 7.710269, 8.073344</max>
		</layer>
		<layer>
			<name>pre_fc7_mbox_conf_64</name>
			<min>-6.351195, -3.681711, -5.398433, -4.125447, -4.271228, -5.654663, -4.647198, -2.766305, -5.716592, -7.952229, -4.386271, -6.332855, -4.651770, -2.337900, -4.755964, -3.140039</min>
			<max>3.302457, 6.819745, 5.884870, 10.053521, 8.185641, 4.040220, 8.932087, 6.608097, 2.413464, 7.365057, 6.599872, 3.554152, 8.895521, 8.915279, 7.710269, 8.073344</max>
		</layer>
		<layer>
			<name>relu1</name>
			<min>… -0.000000</min>
			<max>… 6.665816</max>
		</layer>
		<layer>
			<name>relu2_1/dw</name>
			<min>… -0.000000</min>
			<max>… 9.227189</max>
		</layer>
		<layer>
			<name>relu2_1/sep</name>
			<min>… -0.000000</min>
			<max>… 9.840614</max>
		</layer>
		<layer>
			<name>relu2_2/dw</name>
			<min>… -0.000000</min>
			<max>… 11.302382</max>
		</layer>
		<layer>
			<name>relu2_2/sep</name>
			<min>… -0.000000</min>
			<max>… 4.689734</max>
		</layer>
		<layer>
			<name>relu3_1/dw</name>
			<min>… -0.000000</min>
			<max>… 14.971102</max>
		</layer>
		<layer>
			<name>relu3_1/sep</name>
			<min>… -0.000000</min>
			<max>… 7.909648</max>
		</layer>
		<layer>
			<name>relu3_2/dw</name>
			<min>… -0.000000</min>
			<max>… 10.174630</max>
		</layer>
		<layer>
			<name>relu3_2/sep</name>
			<min>… -0.000000</min>
			<max>… 7.180035</max>
		</layer>
		<layer>
			<name>relu4_1/dw</name>
			<min>… -0.000000</min>
			<max>… 7.879743</max>
		</layer>
		<layer>
			<name>relu4_1/sep</name>
			<min>… -0.000000</min>
			<max>… 6.629012</max>
		</layer>
		<layer>
			<name>relu4_2/dw</name>
			<min>… -0.000000</min>
			<max>… 7.814982</max>
		</layer>
		<layer>
			<name>relu4_2/sep</name>
			<min>… -0.000000</min>
			<max>… 5.552253</max>
		</layer>
		<layer>
			<name>relu5_1/dw</name>
			<min>… -0.000000</min>
			<max>… 6.248757</max>
		</layer>
		<layer>
			<name>relu5_1/sep</name>
			<min>… -0.000000</min>
			<max>… 5.059403</max>
		</layer>
		<layer>
			<name>relu5_2/dw</name>
			<min>… -0.000000</min>
			<max>… 7.425911</max>
		</layer>
		<layer>
			<name>relu5_2/sep</name>
			<min>… -0.000000</min>
			<max>… 6.983694</max>
		</layer>
		<layer>
			<name>relu5_3/dw</name>
			<min>… -0.000000</min>
			<max>… 11.035407</max>
		</layer>
		<layer>
			<name>relu5_3/sep</name>
			<min>… -0.000000</min>
			<max>… 6.374687</max>
		</layer>
		<layer>
			<name>relu5_4/dw</name>
			<min>… -0.000000</min>
			<max>… 8.019533</max>
		</layer>
		<layer>
			<name>relu5_4/sep</name>
			<min>… -0.000000</min>
			<max>… 7.256069</max>
		</layer>
		<layer>
			<name>relu5_5/dw</name>
			<min>… -0.000000</min>
			<max>… 6.945304</max>
		</layer>
		<layer>
			<name>relu5_5/sep</name>
			<min>… -0.000000</min>
			<max>… 3.906132</max>
		</layer>
		<layer>
			<name>relu5_6/dw</name>
			<min>… -0.000000</min>
			<max>… 9.336098</max>
		</layer>
		<layer>
			<name>relu5_6/sep</name>
			<min>… -0.000000</min>
			<max>… 3.477383</max>
		</layer>
		<layer>
			<name>relu6/dw</name>
			<min>… -0.000000</min>
			<max>… 5.362652</max>
		</layer>
		<layer>
			<name>relu6/sep</name>
			<min>… -0.000000</min>
			<max>… 6.846510</max>
		</layer>
		<layer>
			<name>relu6_1</name>
			<min>… -0.000000</min>
			<max>… 6.889956</max>
		</layer>
		<layer>
			<name>relu6_2</name>
			<min>… -0.000000</min>
			<max>… 1.989600</max>
		</layer>
		<layer>
			<name>relu6_2/dw</name>
			<min>… -0.000000</min>
			<max>… 7.642822</max>
		</layer>
		<layer>
			<name>relu7_1</name>
			<min>… -0.000000</min>
			<max>… 4.011266</max>
		</layer>
		<layer>
			<name>relu7_2</name>
			<min>… -0.000000</min>
			<max>… 4.660887</max>
		</layer>
		<layer>
			<name>relu7_2/dw</name>
			<min>… -0.000000</min>
			<max>… 1.972807</max>
		</layer>
		<layer>
			<name>relu8_1</name>
			<min>… -0.000000</min>
			<max>… 3.206264</max>
		</layer>
		<layer>
			<name>relu8_2</name>
			<min>… -0.000000</min>
			<max>… 2.554516</max>
		</layer>
		<layer>
			<name>relu8_2/dw</name>
			<min>… -0.000000</min>
			<max>… 2.047564</max>
		</layer>
		<layer>
			<name>relu9_1</name>
			<min>… -0.000000</min>
			<max>… 1.548123</max>
		</layer>
		<layer>
			<name>relu9_2</name>
			<min>… -0.000000</min>
			<max>… 2.758609</max>
		</layer>
		<layer>
			<name>relu9_2/dw</name>
			<min>… -0.000000</min>
			<max>… 1.081266</max>
		</layer>
	</statistics>
</net>
