<?xml version="1.0"?>
<net name="ssd_mobilenet" version="3" batch="1">
	<layers>
		<layer name="mbox_conf_reshape/DimData_const" type="Const" precision="FP32" id="0">
			<output>
				<port id="0">
					<dim>3</dim>
				</port>
			</output>
			<blobs>
				<custom offset="0" size="12" />
			</blobs>
		</layer>
		<layer name="data" type="Input" precision="FP32" id="1">
			<output>
				<port id="0">
					<dim>1</dim>
					<dim>3</dim>
					<dim>300</dim>
					<dim>300</dim>
				</port>
			</output>
		</layer>
		<layer name="Mul1_/Fused_Mul_/FusedScaleShift_" type="ScaleShift" precision="FP32" id="2">
			<data broadcast="0" />
			<input>
				<port id="0">
					<dim>1</dim>
					<dim>3</dim>
					<dim>300</dim>
					<dim>300</dim>
				</port>
			</input>
			<output>
				<port id="1">
					<dim>1</dim>
					<dim>3</dim>
					<dim>300</dim>
					<dim>300</dim>
				</port>
			</output>
			<blobs>
				<biases offset="12" size="12" />
				<weights offset="24" size="12" />
			</blobs>
		</layer>
		<layer name="conv0" type="Convolution" precision="FP32" id="3">
			<data dilations="1,1" group="1" kernel="3,3" output="32" pads_begin="1,1" pads_end="1,1" quantization_level="I8" strides="2,2" />
			<input>
				<port id="0">
					<dim>1</dim>
					<dim>3</dim>
					<dim>300</dim>
					<dim>300</dim>
				</port>
			</input>
			<output>
				<port id="1">
					<dim>1</dim>
					<dim>32</dim>
					<dim>150</dim>
					<dim>150</dim>
				</port>
			</output>
			<blobs>
				<biases offset="36" size="128" />
				<weights offset="164" size="3456" />
			</blobs>
		</layer>
		<layer name="conv0/relu" type="ReLU" precision="FP32" id="4">
			<data negative_slope="0.0" />
			<input>
				<port id="0">
					<dim>1</dim>
					<dim>32</dim>
					<dim>150</dim>
					<dim>150</dim>
				</port>
			</input>
			<output>
				<port id="1">
					<dim>1</dim>
					<dim>32</dim>
					<dim>150</dim>
					<dim>150</dim>
				</port>
			</output>
		</layer>
		<layer name="conv1/dw" type="Convolution" precision="FP32" id="5">
			<data dilations="1,1" group="32" kernel="3,3" output="32" pads_begin="1,1" pads_end="1,1" quantization_level="FP32" strides="1,1" />
			<input>
				<port id="0">
					<dim>1</dim>
					<dim>32</dim>
					<dim>150</dim>
					<dim>150</dim>
				</port>
			</input>
			<output>
				<port id="1">
					<dim>1</dim>
					<dim>32</dim>
					<dim>150</dim>
					<dim>150</dim>
				</port>
			</output>
			<blobs>
				<biases offset="3620" size="128" />
				<weights offset="3748" size="1152" />
			</blobs>
		</layer>
		<layer name="conv1/dw/relu" type="ReLU" precision="FP32" id="6">
			<data negative_slope="0.0" />
			<input>
				<port id="0">
					<dim>1</dim>
					<dim>32</dim>
					<dim>150</dim>
					<dim>150</dim>
				</port>
			</input>
			<output>
				<port id="1">
					<dim>1</dim>
					<dim>32</dim>
					<dim>150</dim>
					<dim>150</dim>
				</port>
			</output>
		</layer>
		<layer name="conv1" type="Convolution" precision="FP32" id="7">
			<data dilations="1,1" group="1" kernel="1,1" output="64" pads_begin="0,0" pads_end="0,0" quantization_level="I8" strides="1,1" />
			<input>
				<port id="0">
					<dim>1</dim>
					<dim>32</dim>
					<dim>150</dim>
					<dim>150</dim>
				</port>
			</input>
			<output>
				<port id="1">
					<dim>1</dim>
					<dim>64</dim>
					<dim>150</dim>
					<dim>150</dim>
				</port>
			</output>
			<blobs>
				<biases offset="4900" size="256" />
				<weights offset="5156" size="8192" />
			</blobs>
		</layer>
		<layer name="conv1/relu" type="ReLU" precision="FP32" id="8">
			<data negative_slope="0.0" />
			<input>
				<port id="0">
					<dim>1</dim>
					<dim>64</dim>
					<dim>150</dim>
					<dim>150</dim>
				</port>
			</input>
			<output>
				<port id="1">
					<dim>1</dim>
					<dim>64</dim>
					<dim>150</dim>
					<dim>150</dim>
				</port>
			</output>
		</layer>
		<layer name="conv2/dw" type="Convolution" precision="FP32" id="9">
			<data dilations="1,1" group="64" kernel="3,3" output="64" pads_begin="1,1" pads_end="1,1" quantization_level="I8" strides="2,2" />
			<input>
				<port id="0">
					<dim>1</dim>
					<dim>64</dim>
					<dim>150</dim>
					<dim>150</dim>
				</port>
			</input>
			<output>
				<port id="1">
					<dim>1</dim>
					<dim>64</dim>
					<dim>75</dim>
					<dim>75</dim>
				</port>
			</output>
			<blobs>
				<biases offset="13348" size="256" />
				<weights offset="13604" size="2304" />
			</blobs>
		</layer>
		<layer name="conv2/dw/relu" type="ReLU" precision="FP32" id="10">
			<data negative_slope="0.0" />
			<input>
				<port id="0">
					<dim>1</dim>
					<dim>64</dim>
					<dim>75</dim>
					<dim>75</dim>
				</port>
			</input>
			<output>
				<port id="1">
					<dim>1</dim>
					<dim>64</dim>
					<dim>75</dim>
					<dim>75</dim>
				</port>
			</output>
		</layer>
		<layer name="conv2" type="Convolution" precision="FP32" id="11">
			<data dilations="1,1" group="1" kernel="1,1" output="128" pads_begin="0,0" pads_end="0,0" quantization_level="I8" strides="1,1" />
			<input>
				<port id="0">
					<dim>1</dim>
					<dim>64</dim>
					<dim>75</dim>
					<dim>75</dim>
				</port>
			</input>
			<output>
				<port id="1">
					<dim>1</dim>
					<dim>128</dim>
					<dim>75</dim>
					<dim>75</dim>
				</port>
			</output>
			<blobs>
				<biases offset="15908" size="512" />
				<weights offset="16420" size="32768" />
			</blobs>
		</layer>
		<layer name="conv2/relu" type="ReLU" precision="FP32" id="12">
			<data negative_slope="0.0" />
			<input>
				<port id="0">
					<dim>1</dim>
					<dim>128</dim>
					<dim>75</dim>
					<dim>75</dim>
				</port>
			</input>
			<output>
				<port id="1">
					<dim>1</dim>
					<dim>128</dim>
					<dim>75</dim>
					<dim>75</dim>
				</port>
			</output>
		</layer>
		<layer name="conv3/dw" type="Convolution" precision="FP32" id="13">
			<data dilations="1,1" group="128" kernel="3,3" output="128" pads_begin="1,1" pads_end="1,1" quantization_level="I8" strides="1,1" />
			<input>
				<port id="0">
					<dim>1</dim>
					<dim>128</dim>
					<dim>75</dim>
					<dim>75</dim>
				</port>
			</input>
			<output>
				<port id="1">
					<dim>1</dim>
					<dim>128</dim>
					<dim>75</dim>
					<dim>75</dim>
				</port>
			</output>
			<blobs>
				<biases offset="49188" size="512" />
				<weights offset="49700" size="4608" />
			</blobs>
		</layer>
		<layer name="conv3/dw/relu" type="ReLU" precision="FP32" id="14">
			<data negative_slope="0.0" />
			<input>
				<port id="0">
					<dim>1</dim>
					<dim>128</dim>
					<dim>75</dim>
					<dim>75</dim>
				</port>
			</input>
			<output>
				<port id="1">
					<dim>1</dim>
					<dim>128</dim>
					<dim>75</dim>
					<dim>75</dim>
				</port>
			</output>
		</layer>
		<layer name="conv3" type="Convolution" precision="FP32" id="15">
			<data dilations="1,1" group="1" kernel="1,1" output="128" pads_begin="0,0" pads_end="0,0" quantization_level="I8" strides="1,1" />
			<input>
				<port id="0">
					<dim>1</dim>
					<dim>128</dim>
					<dim>75</dim>
					<dim>75</dim>
				</port>
			</input>
			<output>
				<port id="1">
					<dim>1</dim>
					<dim>128</dim>
					<dim>75</dim>
					<dim>75</dim>
				</port>
			</output>
			<blobs>
				<biases offset="54308" size="512" />
				<weights offset="54820" size="65536" />
			</blobs>
		</layer>
		<layer name="conv3/relu" type="ReLU" precision="FP32" id="16">
			<data negative_slope="0.0" />
			<input>
				<port id="0">
					<dim>1</dim>
					<dim>128</dim>
					<dim>75</dim>
					<dim>75</dim>
				</port>
			</input>
			<output>
				<port id="1">
					<dim>1</dim>
					<dim>128</dim>
					<dim>75</dim>
					<dim>75</dim>
				</port>
			</output>
		</layer>
		<layer name="conv4/dw" type="Convolution" precision="FP32" id="17">
			<data dilations="1,1" group="128" kernel="3,3" output="128" pads_begin="1,1" pads_end="1,1" quantization_level="I8" strides="2,2" />
			<input>
				<port id="0">
					<dim>1</dim>
					<dim>128</dim>
					<dim>75</dim>
					<dim>75</dim>
				</port>
			</input>
			<output>
				<port id="1">
					<dim>1</dim>
					<dim>128</dim>
					<dim>38</dim>
					<dim>38</dim>
				</port>
			</output>
			<blobs>
				<biases offset="120356" size="512" />
				<weights offset="120868" size="4608" />
			</blobs>
		</layer>
		<layer name="conv4/dw/relu" type="ReLU" precision="FP32" id="18">
			<data negative_slope="0.0" />
			<input>
				<port id="0">
					<dim>1</dim>
					<dim>128</dim>
					<dim>38</dim>
					<dim>38</dim>
				</port>
			</input>
			<output>
				<port id="1">
					<dim>1</dim>
					<dim>128</dim>
					<dim>38</dim>
					<dim>38</dim>
				</port>
			</output>
		</layer>
		<layer name="conv4" type="Convolution" precision="FP32" id="19">
			<data dilations="1,1" group="1" kernel="1,1" output="256" pads_begin="0,0" pads_end="0,0" quantization_level="I8" strides="1,1" />
			<input>
				<port id="0">
					<dim>1</dim>
					<dim>128</dim>
					<dim>38</dim>
					<dim>38</dim>
				</port>
			</input>
			<output>
				<port id="1">
					<dim>1</dim>
					<dim>256</dim>
					<dim>38</dim>
					<dim>38</dim>
				</port>
			</output>
			<blobs>
				<biases offset="125476" size="1024" />
				<weights offset="126500" size="131072" />
			</blobs>
		</layer>
		<layer name="conv4/relu" type="ReLU" precision="FP32" id="20">
			<data negative_slope="0.0" />
			<input>
				<port id="0">
					<dim>1</dim>
					<dim>256</dim>
					<dim>38</dim>
					<dim>38</dim>
				</port>
			</input>
			<output>
				<port id="1">
					<dim>1</dim>
					<dim>256</dim>
					<dim>38</dim>
					<dim>38</dim>
				</port>
			</output>
		</layer>
		<layer name="conv5/dw" type="Convolution" precision="FP32" id="21">
			<data dilations="1,1" group="256" kernel="3,3" output="256" pads_begin="1,1" pads_end="1,1" quantization_level="I8" strides="1,1" />
			<input>
				<port id="0">
					<dim>1</dim>
					<dim>256</dim>
					<dim>38</dim>
					<dim>38</dim>
				</port>
			</input>
			<output>
				<port id="1">
					<dim>1</dim>
					<dim>256</dim>
					<dim>38</dim>
					<dim>38</dim>
				</port>
			</output>
			<blobs>
				<biases offset="257572" size="1024" />
				<weights offset="258596" size="9216" />
			</blobs>
		</layer>
		<layer name="conv5/dw/relu" type="ReLU" precision="FP32" id="22">
			<data negative_slope="0.0" />
			<input>
				<port id="0">
					<dim>1</dim>
					<dim>256</dim>
					<dim>38</dim>
					<dim>38</dim>
				</port>
			</input>
			<output>
				<port id="1">
					<dim>1</dim>
					<dim>256</dim>
					<dim>38</dim>
					<dim>38</dim>
				</port>
			</output>
		</layer>
		<layer name="conv5" type="Convolution" precision="FP32" id="23">
			<data dilations="1,1" group="1" kernel="1,1" output="256" pads_begin="0,0" pads_end="0,0" quantization_level="I8" strides="1,1" />
			<input>
				<port id="0">
					<dim>1</dim>
					<dim>256</dim>
					<dim>38</dim>
					<dim>38</dim>
				</port>
			</input>
			<output>
				<port id="1">
					<dim>1</dim>
					<dim>256</dim>
					<dim>38</dim>
					<dim>38</dim>
				</port>
			</output>
			<blobs>
				<biases offset="267812" size="1024" />
				<weights offset="268836" size="262144" />
			</blobs>
		</layer>
		<layer name="conv5/relu" type="ReLU" precision="FP32" id="24">
			<data negative_slope="0.0" />
			<input>
				<port id="0">
					<dim>1</dim>
					<dim>256</dim>
					<dim>38</dim>
					<dim>38</dim>
				</port>
			</input>
			<output>
				<port id="1">
					<dim>1</dim>
					<dim>256</dim>
					<dim>38</dim>
					<dim>38</dim>
				</port>
			</output>
		</layer>
		<layer name="conv6/dw" type="Convolution" precision="FP32" id="25">
			<data dilations="1,1" group="256" kernel="3,3" output="256" pads_begin="1,1" pads_end="1,1" quantization_level="I8" strides="2,2" />
			<input>
				<port id="0">
					<dim>1</dim>
					<dim>256</dim>
					<dim>38</dim>
					<dim>38</dim>
				</port>
			</input>
			<output>
				<port id="1">
					<dim>1</dim>
					<dim>256</dim>
					<dim>19</dim>
					<dim>19</dim>
				</port>
			</output>
			<blobs>
				<biases offset="530980" size="1024" />
				<weights offset="532004" size="9216" />
			</blobs>
		</layer>
		<layer name="conv6/dw/relu" type="ReLU" precision="FP32" id="26">
			<data negative_slope="0.0" />
			<input>
				<port id="0">
					<dim>1</dim>
					<dim>256</dim>
					<dim>19</dim>
					<dim>19</dim>
				</port>
			</input>
			<output>
				<port id="1">
					<dim>1</dim>
					<dim>256</dim>
					<dim>19</dim>
					<dim>19</dim>
				</port>
			</output>
		</layer>
		<layer name="conv6" type="Convolution" precision="FP32" id="27">
			<data dilations="1,1" group="1" kernel="1,1" output="512" pads_begin="0,0" pads_end="0,0" quantization_level="I8" strides="1,1" />
			<input>
				<port id="0">
					<dim>1</dim>
					<dim>256</dim>
					<dim>19</dim>
					<dim>19</dim>
				</port>
			</input>
			<output>
				<port id="1">
					<dim>1</dim>
					<dim>512</dim>
					<dim>19</dim>
					<dim>19</dim>
				</port>
			</output>
			<blobs>
				<biases offset="541220" size="2048" />
				<weights offset="543268" size="524288" />
			</blobs>
		</layer>
		<layer name="conv6/relu" type="ReLU" precision="FP32" id="28">
			<data negative_slope="0.0" />
			<input>
				<port id="0">
					<dim>1</dim>
					<dim>512</dim>
					<dim>19</dim>
					<dim>19</dim>
				</port>
			</input>
			<output>
				<port id="1">
					<dim>1</dim>
					<dim>512</dim>
					<dim>19</dim>
					<dim>19</dim>
				</port>
			</output>
		</layer>
		<layer name="conv7/dw" type="Convolution" precision="FP32" id="29">
			<data dilations="1,1" group="512" kernel="3,3" output="512" pads_begin="1,1" pads_end="1,1" quantization_level="I8" strides="1,1" />
			<input>
				<port id="0">
					<dim>1</dim>
					<dim>512</dim>
					<dim>19</dim>
					<dim>19</dim>
				</port>
			</input>
			<output>
				<port id="1">
					<dim>1</dim>
					<dim>512</dim>
					<dim>19</dim>
					<dim>19</dim>
				</port>
			</output>
			<blobs>
				<biases offset="1067556" size="2048" />
				<weights offset="1069604" size="18432" />
			</blobs>
		</layer>
		<layer name="conv7/dw/relu" type="ReLU" precision="FP32" id="30">
			<data negative_slope="0.0" />
			<input>
				<port id="0">
					<dim>1</dim>
					<dim>512</dim>
					<dim>19</dim>
					<dim>19</dim>
				</port>
			</input>
			<output>
				<port id="1">
					<dim>1</dim>
					<dim>512</dim>
					<dim>19</dim>
					<dim>19</dim>
				</port>
			</output>
		</layer>
		<layer name="conv7" type="Convolution" precision="FP32" id="31">
			<data dilations="1,1" group="1" kernel="1,1" output="512" pads_begin="0,0" pads_end="0,0" quantization_level="I8" strides="1,1" />
			<input>
				<port id="0">
					<dim>1</dim>
					<dim>512</dim>
					<dim>19</dim>
					<dim>19</dim>
				</port>
			</input>
			<output>
				<port id="1">
					<dim>1</dim>
					<dim>512</dim>
					<dim>19</dim>
					<dim>19</dim>
				</port>
			</output>
			<blobs>
				<biases offset="1088036" size="2048" />
				<weights offset="1090084" size="1048576" />
			</blobs>
		</layer>
		<layer name="conv7/relu" type="ReLU" precision="FP32" id="32">
			<data negative_slope="0.0" />
			<input>
				<port id="0">
					<dim>1</dim>
					<dim>512</dim>
					<dim>19</dim>
					<dim>19</dim>
				</port>
			</input>
			<output>
				<port id="1">
					<dim>1</dim>
					<dim>512</dim>
					<dim>19</dim>
					<dim>19</dim>
				</port>
			</output>
		</layer>
		<layer name="conv8/dw" type="Convolution" precision="FP32" id="33">
			<data dilations="1,1" group="512" kernel="3,3" output="512" pads_begin="1,1" pads_end="1,1" quantization_level="I8" strides="1,1" />
			<input>
				<port id="0">
					<dim>1</dim>
					<dim>512</dim>
					<dim>19</dim>
					<dim>19</dim>
				</port>
			</input>
			<output>
				<port id="1">
					<dim>1</dim>
					<dim>512</dim>
					<dim>19</dim>
					<dim>19</dim>
				</port>
			</output>
			<blobs>
				<biases offset="2138660" size="2048" />
				<weights offset="2140708" size="18432" />
			</blobs>
		</layer>
		<layer name="conv8/dw/relu" type="ReLU" precision="FP32" id="34">
			<data negative_slope="0.0" />
			<input>
				<port id="0">
					<dim>1</dim>
					<dim>512</dim>
					<dim>19</dim>
					<dim>19</dim>
				</port>
			</input>
			<output>
				<port id="1">
					<dim>1</dim>
					<dim>512</dim>
					<dim>19</dim>
					<dim>19</dim>
				</port>
			</output>
		</layer>
		<layer name="conv8" type="Convolution" precision="FP32" id="35">
			<data dilations="1,1" group="1" kernel="1,1" output="512" pads_begin="0,0" pads_end="0,0" quantization_level="I8" strides="1,1" />
			<input>
				<port id="0">
					<dim>1</dim>
					<dim>512</dim>
					<dim>19</dim>
					<dim>19</dim>
				</port>
			</input>
			<output>
				<port id="1">
					<dim>1</dim>
					<dim>512</dim>
					<dim>19</dim>
					<dim>19</dim>
				</port>
			</output>
			<blobs>
				<biases offset="2159140" size="2048" />
				<weights offset="2161188" size="1048576" />
			</blobs>
		</layer>
		<layer name="conv8/relu" type="ReLU" precision="FP32" id="36">
			<data negative_slope="0.0" />
			<input>
				<port id="0">
					<dim>1</dim>
					<dim>512</dim>
					<dim>19</dim>
					<dim>19</dim>
				</port>
			</input>
			<output>
				<port id="1">
					<dim>1</dim>
					<dim>512</dim>
					<dim>19</dim>
					<dim>19</dim>
				</port>
			</output>
		</layer>
		<layer name="conv9/dw" type="Convolution" precision="FP32" id="37">
			<data dilations="1,1" group="512" kernel="3,3" output="512" pads_begin="1,1" pads_end="1,1" quantization_level="I8" strides="1,1" />
			<input>
				<port id="0">
					<dim>1</dim>
					<dim>512</dim>
					<dim>19</dim>
					<dim>19</dim>
				</port>
			</input>
			<output>
				<port id="1">
					<dim>1</dim>
					<dim>512</dim>
					<dim>19</dim>
					<dim>19</dim>
				</port>
			</output>
			<blobs>
				<biases offset="3209764" size="2048" />
				<weights offset="3211812" size="18432" />
			</blobs>
		</layer>
		<layer name="conv9/dw/relu" type="ReLU" precision="FP32" id="38">
			<data negative_slope="0.0" />
			<input>
				<port id="0">
					<dim>1</dim>
					<dim>512</dim>
					<dim>19</dim>
					<dim>19</dim>
				</port>
			</input>
			<output>
				<port id="1">
					<dim>1</dim>
					<dim>512</dim>
					<dim>19</dim>
					<dim>19</dim>
				</port>
			</output>
		</layer>
		<layer name="conv9" type="Convolution" precision="FP32" id="39">
			<data dilations="1,1" group="1" kernel="1,1" output="512" pads_begin="0,0" pads_end="0,0" quantization_level="I8" strides="1,1" />
			<input>
				<port id="0">
					<dim>1</dim>
					<dim>512</dim>
					<dim>19</dim>
					<dim>19</dim>
				</port>
			</input>
			<output>
				<port id="1">
					<dim>1</dim>
					<dim>512</dim>
					<dim>19</dim>
					<dim>19</dim>
				</port>
			</output>
			<blobs>
				<biases offset="3230244" size="2048" />
				<weights offset="3232292" size="1048576" />
			</blobs>
		</layer>
		<layer name="conv9/relu" type="ReLU" precision="FP32" id="40">
			<data negative_slope="0.0" />
			<input>
				<port id="0">
					<dim>1</dim>
					<dim>512</dim>
					<dim>19</dim>
					<dim>19</dim>
				</port>
			</input>
			<output>
				<port id="1">
					<dim>1</dim>
					<dim>512</dim>
					<dim>19</dim>
					<dim>19</dim>
				</port>
			</output>
		</layer>
		<layer name="conv10/dw" type="Convolution" precision="FP32" id="41">
			<data dilations="1,1" group="512" kernel="3,3" output="512" pads_begin="1,1" pads_end="1,1" quantization_level="I8" strides="1,1" />
			<input>
				<port id="0">
					<dim>1</dim>
					<dim>512</dim>
					<dim>19</dim>
					<dim>19</dim>
				</port>
			</input>
			<output>
				<port id="1">
					<dim>1</dim>
					<dim>512</dim>
					<dim>19</dim>
					<dim>19</dim>
				</port>
			</output>
			<blobs>
				<biases offset="4280868" size="2048" />
				<weights offset="4282916" size="18432" />
			</blobs>
		</layer>
		<layer name="conv10/dw/relu" type="ReLU" precision="FP32" id="42">
			<data negative_slope="0.0" />
			<input>
				<port id="0">
					<dim>1</dim>
					<dim>512</dim>
					<dim>19</dim>
					<dim>19</dim>
				</port>
			</input>
			<output>
				<port id="1">
					<dim>1</dim>
					<dim>512</dim>
					<dim>19</dim>
					<dim>19</dim>
				</port>
			</output>
		</layer>
		<layer name="conv10" type="Convolution" precision="FP32" id="43">
			<data dilations="1,1" group="1" kernel="1,1" output="512" pads_begin="0,0" pads_end="0,0" quantization_level="I8" strides="1,1" />
			<input>
				<port id="0">
					<dim>1</dim>
					<dim>512</dim>
					<dim>19</dim>
					<dim>19</dim>
				</port>
			</input>
			<output>
				<port id="1">
					<dim>1</dim>
					<dim>512</dim>
					<dim>19</dim>
					<dim>19</dim>
				</port>
			</output>
			<blobs>
				<biases offset="4301348" size="2048" />
				<weights offset="4303396" size="1048576" />
			</blobs>
		</layer>
		<layer name="conv10/relu" type="ReLU" precision="FP32" id="44">
			<data negative_slope="0.0" />
			<input>
				<port id="0">
					<dim>1</dim>
					<dim>512</dim>
					<dim>19</dim>
					<dim>19</dim>
				</port>
			</input>
			<output>
				<port id="1">
					<dim>1</dim>
					<dim>512</dim>
					<dim>19</dim>
					<dim>19</dim>
				</port>
			</output>
		</layer>
		<layer name="conv11/dw" type="Convolution" precision="FP32" id="45">
			<data dilations="1,1" group="512" kernel="3,3" output="512" pads_begin="1,1" pads_end="1,1" quantization_level="I8" strides="1,1" />
			<input>
				<port id="0">
					<dim>1</dim>
					<dim>512</dim>
					<dim>19</dim>
					<dim>19</dim>
				</port>
			</input>
			<output>
				<port id="1">
					<dim>1</dim>
					<dim>512</dim>
					<dim>19</dim>
					<dim>19</dim>
				</port>
			</output>
			<blobs>
				<biases offset="5351972" size="2048" />
				<weights offset="5354020" size="18432" />
			</blobs>
		</layer>
		<layer name="conv11/dw/relu" type="ReLU" precision="FP32" id="46">
			<data negative_slope="0.0" />
			<input>
				<port id="0">
					<dim>1</dim>
					<dim>512</dim>
					<dim>19</dim>
					<dim>19</dim>
				</port>
			</input>
			<output>
				<port id="1">
					<dim>1</dim>
					<dim>512</dim>
					<dim>19</dim>
					<dim>19</dim>
				</port>
			</output>
		</layer>
		<layer name="conv11" type="Convolution" precision="FP32" id="47">
			<data dilations="1,1" group="1" kernel="1,1" output="512" pads_begin="0,0" pads_end="0,0" quantization_level="I8" strides="1,1" />
			<input>
				<port id="0">
					<dim>1</dim>
					<dim>512</dim>
					<dim>19</dim>
					<dim>19</dim>
				</port>
			</input>
			<output>
				<port id="1">
					<dim>1</dim>
					<dim>512</dim>
					<dim>19</dim>
					<dim>19</dim>
				</port>
			</output>
			<blobs>
				<biases offset="5372452" size="2048" />
				<weights offset="5374500" size="1048576" />
			</blobs>
		</layer>
		<layer name="conv11/relu" type="ReLU" precision="FP32" id="48">
			<data negative_slope="0.0" />
			<input>
				<port id="0">
					<dim>1</dim>
					<dim>512</dim>
					<dim>19</dim>
					<dim>19</dim>
				</port>
			</input>
			<output>
				<port id="1">
					<dim>1</dim>
					<dim>512</dim>
					<dim>19</dim>
					<dim>19</dim>
				</port>
			</output>
		</layer>
		<layer name="conv12/dw" type="Convolution" precision="FP32" id="49">
			<data dilations="1,1" group="512" kernel="3,3" output="512" pads_begin="1,1" pads_end="1,1" quantization_level="I8" strides="2,2" />
			<input>
				<port id="0">
					<dim>1</dim>
					<dim>512</dim>
					<dim>19</dim>
					<dim>19</dim>
				</port>
			</input>
			<output>
				<port id="1">
					<dim>1</dim>
					<dim>512</dim>
					<dim>10</dim>
					<dim>10</dim>
				</port>
			</output>
			<blobs>
				<biases offset="6423076" size="2048" />
				<weights offset="6425124" size="18432" />
			</blobs>
		</layer>
		<layer name="conv12/dw/relu" type="ReLU" precision="FP32" id="50">
			<data negative_slope="0.0" />
			<input>
				<port id="0">
					<dim>1</dim>
					<dim>512</dim>
					<dim>10</dim>
					<dim>10</dim>
				</port>
			</input>
			<output>
				<port id="1">
					<dim>1</dim>
					<dim>512</dim>
					<dim>10</dim>
					<dim>10</dim>
				</port>
			</output>
		</layer>
		<layer name="conv12" type="Convolution" precision="FP32" id="51">
			<data dilations="1,1" group="1" kernel="1,1" output="1024" pads_begin="0,0" pads_end="0,0" quantization_level="I8" strides="1,1" />
			<input>
				<port id="0">
					<dim>1</dim>
					<dim>512</dim>
					<dim>10</dim>
					<dim>10</dim>
				</port>
			</input>
			<output>
				<port id="1">
					<dim>1</dim>
					<dim>1024</dim>
					<dim>10</dim>
					<dim>10</dim>
				</port>
			</output>
			<blobs>
				<biases offset="6443556" size="4096" />
				<weights offset="6447652" size="2097152" />
			</blobs>
		</layer>
		<layer name="conv12/relu" type="ReLU" precision="FP32" id="52">
			<data negative_slope="0.0" />
			<input>
				<port id="0">
					<dim>1</dim>
					<dim>1024</dim>
					<dim>10</dim>
					<dim>10</dim>
				</port>
			</input>
			<output>
				<port id="1">
					<dim>1</dim>
					<dim>1024</dim>
					<dim>10</dim>
					<dim>10</dim>
				</port>
			</output>
		</layer>
		<layer name="conv13/dw" type="Convolution" precision="FP32" id="53">
			<data dilations="1,1" group="1024" kernel="3,3" output="1024" pads_begin="1,1" pads_end="1,1" quantization_level="I8" strides="1,1" />
			<input>
				<port id="0">
					<dim>1</dim>
					<dim>1024</dim>
					<dim>10</dim>
					<dim>10</dim>
				</port>
			</input>
			<output>
				<port id="1">
					<dim>1</dim>
					<dim>1024</dim>
					<dim>10</dim>
					<dim>10</dim>
				</port>
			</output>
			<blobs>
				<biases offset="8544804" size="4096" />
				<weights offset="8548900" size="36864" />
			</blobs>
		</layer>
		<layer name="conv13/dw/relu" type="ReLU" precision="FP32" id="54">
			<data negative_slope="0.0" />
			<input>
				<port id="0">
					<dim>1</dim>
					<dim>1024</dim>
					<dim>10</dim>
					<dim>10</dim>
				</port>
			</input>
			<output>
				<port id="1">
					<dim>1</dim>
					<dim>1024</dim>
					<dim>10</dim>
					<dim>10</dim>
				</port>
			</output>
		</layer>
		<layer name="conv13" type="Convolution" precision="FP32" id="55">
			<data dilations="1,1" group="1" kernel="1,1" output="1024" pads_begin="0,0" pads_end="0,0" quantization_level="I8" strides="1,1" />
			<input>
				<port id="0">
					<dim>1</dim>
					<dim>1024</dim>
					<dim>10</dim>
					<dim>10</dim>
				</port>
			</input>
			<output>
				<port id="1">
					<dim>1</dim>
					<dim>1024</dim>
					<dim>10</dim>
					<dim>10</dim>
				</port>
			</output>
			<blobs>
				<biases offset="8585764" size="4096" />
				<weights offset="8589860" size="4194304" />
			</blobs>
		</layer>
		<layer name="conv13/relu" type="ReLU" precision="FP32" id="56">
			<data negative_slope="0.0" />
			<input>
				<port id="0">
					<dim>1</dim>
					<dim>1024</dim>
					<dim>10</dim>
					<dim>10</dim>
				</port>
			</input>
			<output>
				<port id="1">
					<dim>1</dim>
					<dim>1024</dim>
					<dim>10</dim>
					<dim>10</dim>
				</port>
			</output>
		</layer>
		<layer name="conv14_1" type="Convolution" precision="FP32" id="57">
			<data dilations="1,1" group="1" kernel="1,1" output="256" pads_begin="0,0" pads_end="0,0" quantization_level="I8" strides="1,1" />
			<input>
				<port id="0">
					<dim>1</dim>
					<dim>1024</dim>
					<dim>10</dim>
					<dim>10</dim>
				</port>
			</input>
			<output>
				<port id="1">
					<dim>1</dim>
					<dim>256</dim>
					<dim>10</dim>
					<dim>10</dim>
				</port>
			</output>
			<blobs>
				<biases offset="12784164" size="1024" />
				<weights offset="12785188" size="1048576" />
			</blobs>
		</layer>
		<layer name="conv14_1/relu" type="ReLU" precision="FP32" id="58">
			<data negative_slope="0.0" />
			<input>
				<port id="0">
					<dim>1</dim>
					<dim>256</dim>
					<dim>10</dim>
					<dim>10</dim>
				</port>
			</input>
			<output>
				<port id="1">
					<dim>1</dim>
					<dim>256</dim>
					<dim>10</dim>
					<dim>10</dim>
				</port>
			</output>
		</layer>
		<layer name="conv14_2" type="Convolution" precision="FP32" id="59">
			<data dilations="1,1" group="1" kernel="3,3" output="512" pads_begin="1,1" pads_end="1,1" quantization_level="I8" strides="2,2" />
			<input>
				<port id="0">
					<dim>1</dim>
					<dim>256</dim>
					<dim>10</dim>
					<dim>10</dim>
				</port>
			</input>
			<output>
				<port id="1">
					<dim>1</dim>
					<dim>512</dim>
					<dim>5</dim>
					<dim>5</dim>
				</port>
			</output>
			<blobs>
				<biases offset="13833764" size="2048" />
				<weights offset="13835812" size="4718592" />
			</blobs>
		</layer>
		<layer name="conv14_2/relu" type="ReLU" precision="FP32" id="60">
			<data negative_slope="0.0" />
			<input>
				<port id="0">
					<dim>1</dim>
					<dim>512</dim>
					<dim>5</dim>
					<dim>5</dim>
				</port>
			</input>
			<output>
				<port id="1">
					<dim>1</dim>
					<dim>512</dim>
					<dim>5</dim>
					<dim>5</dim>
				</port>
			</output>
		</layer>
		<layer name="conv15_1" type="Convolution" precision="FP32" id="61">
			<data dilations="1,1" group="1" kernel="1,1" output="128" pads_begin="0,0" pads_end="0,0" quantization_level="I8" strides="1,1" />
			<input>
				<port id="0">
					<dim>1</dim>
					<dim>512</dim>
					<dim>5</dim>
					<dim>5</dim>
				</port>
			</input>
			<output>
				<port id="1">
					<dim>1</dim>
					<dim>128</dim>
					<dim>5</dim>
					<dim>5</dim>
				</port>
			</output>
			<blobs>
				<biases offset="18554404" size="512" />
				<weights offset="18554916" size="262144" />
			</blobs>
		</layer>
		<layer name="conv15_1/relu" type="ReLU" precision="FP32" id="62">
			<data negative_slope="0.0" />
			<input>
				<port id="0">
					<dim>1</dim>
					<dim>128</dim>
					<dim>5</dim>
					<dim>5</dim>
				</port>
			</input>
			<output>
				<port id="1">
					<dim>1</dim>
					<dim>128</dim>
					<dim>5</dim>
					<dim>5</dim>
				</port>
			</output>
		</layer>
		<layer name="conv15_2" type="Convolution" precision="FP32" id="63">
			<data dilations="1,1" group="1" kernel="3,3" output="256" pads_begin="1,1" pads_end="1,1" quantization_level="I8" strides="2,2" />
			<input>
				<port id="0">
					<dim>1</dim>
					<dim>128</dim>
					<dim>5</dim>
					<dim>5</dim>
				</port>
			</input>
			<output>
				<port id="1">
					<dim>1</dim>
					<dim>256</dim>
					<dim>3</dim>
					<dim>3</dim>
				</port>
			</output>
			<blobs>
				<biases offset="18817060" size="1024" />
				<weights offset="18818084" size="1179648" />
			</blobs>
		</layer>
		<layer name="conv15_2/relu" type="ReLU" precision="FP32" id="64">
			<data negative_slope="0.0" />
			<input>
				<port id="0">
					<dim>1</dim>
					<dim>256</dim>
					<dim>3</dim>
					<dim>3</dim>
				</port>
			</input>
			<output>
				<port id="1">
					<dim>1</dim>
					<dim>256</dim>
					<dim>3</dim>
					<dim>3</dim>
				</port>
			</output>
		</layer>
		<layer name="conv16_1" type="Convolution" precision="FP32" id="65">
			<data dilations="1,1" group="1" kernel="1,1" output="128" pads_begin="0,0" pads_end="0,0" quantization_level="I8" strides="1,1" />
			<input>
				<port id="0">
					<dim>1</dim>
					<dim>256</dim>
					<dim>3</dim>
					<dim>3</dim>
				</port>
			</input>
			<output>
				<port id="1">
					<dim>1</dim>
					<dim>128</dim>
					<dim>3</dim>
					<dim>3</dim>
				</port>
			</output>
			<blobs>
				<biases offset="19997732" size="512" />
				<weights offset="19998244" size="131072" />
			</blobs>
		</layer>
		<layer name="conv16_1/relu" type="ReLU" precision="FP32" id="66">
			<data negative_slope="0.0" />
			<input>
				<port id="0">
					<dim>1</dim>
					<dim>128</dim>
					<dim>3</dim>
					<dim>3</dim>
				</port>
			</input>
			<output>
				<port id="1">
					<dim>1</dim>
					<dim>128</dim>
					<dim>3</dim>
					<dim>3</dim>
				</port>
			</output>
		</layer>
		<layer name="conv16_2" type="Convolution" precision="FP32" id="67">
			<data dilations="1,1" group="1" kernel="3,3" output="256" pads_begin="1,1" pads_end="1,1" quantization_level="I8" strides="2,2" />
			<input>
				<port id="0">
					<dim>1</dim>
					<dim>128</dim>
					<dim>3</dim>
					<dim>3</dim>
				</port>
			</input>
			<output>
				<port id="1">
					<dim>1</dim>
					<dim>256</dim>
					<dim>2</dim>
					<dim>2</dim>
				</port>
			</output>
			<blobs>
				<biases offset="20129316" size="1024" />
				<weights offset="20130340" size="1179648" />
			</blobs>
		</layer>
		<layer name="conv16_2/relu" type="ReLU" precision="FP32" id="68">
			<data negative_slope="0.0" />
			<input>
				<port id="0">
					<dim>1</dim>
					<dim>256</dim>
					<dim>2</dim>
					<dim>2</dim>
				</port>
			</input>
			<output>
				<port id="1">
					<dim>1</dim>
					<dim>256</dim>
					<dim>2</dim>
					<dim>2</dim>
				</port>
			</output>
		</layer>
		<layer name="conv17_1" type="Convolution" precision="FP32" id="69">
			<data dilations="1,1" group="1" kernel="1,1" output="64" pads_begin="0,0" pads_end="0,0" quantization_level="I8" strides="1,1" />
			<input>
				<port id="0">
					<dim>1</dim>
					<dim>256</dim>
					<dim>2</dim>
					<dim>2</dim>
				</port>
			</input>
			<output>
				<port id="1">
					<dim>1</dim>
					<dim>64</dim>
					<dim>2</dim>
					<dim>2</dim>
				</port>
			</output>
			<blobs>
				<biases offset="21309988" size="256" />
				<weights offset="21310244" size="65536" />
			</blobs>
		</layer>
		<layer name="conv17_1/relu" type="ReLU" precision="FP32" id="70">
			<data negative_slope="0.0" />
			<input>
				<port id="0">
					<dim>1</dim>
					<dim>64</dim>
					<dim>2</dim>
					<dim>2</dim>
				</port>
			</input>
			<output>
				<port id="1">
					<dim>1</dim>
					<dim>64</dim>
					<dim>2</dim>
					<dim>2</dim>
				</port>
			</output>
		</layer>
		<layer name="conv17_2" type="Convolution" precision="FP32" id="71">
			<data dilations="1,1" group="1" kernel="3,3" output="128" pads_begin="1,1" pads_end="1,1" quantization_level="I8" strides="2,2" />
			<input>
				<port id="0">
					<dim>1</dim>
					<dim>64</dim>
					<dim>2</dim>
					<dim>2</dim>
				</port>
			</input>
			<output>
				<port id="1">
					<dim>1</dim>
					<dim>128</dim>
					<dim>1</dim>
					<dim>1</dim>
				</port>
			</output>
			<blobs>
				<biases offset="21375780" size="512" />
				<weights offset="21376292" size="294912" />
			</blobs>
		</layer>
		<layer name="conv17_2/relu" type="ReLU" precision="FP32" id="72">
			<data negative_slope="0.0" />
			<input>
				<port id="0">
					<dim>1</dim>
					<dim>128</dim>
					<dim>1</dim>
					<dim>1</dim>
				</port>
			</input>
			<output>
				<port id="1">
					<dim>1</dim>
					<dim>128</dim>
					<dim>1</dim>
					<dim>1</dim>
				</port>
			</output>
		</layer>
		<layer name="conv17_2_mbox_priorbox" type="PriorBox" precision="FP32" id="73">
			<data aspect_ratio="2.0,3.0" clip="0" flip="1" max_size="300.0" min_size="285.0" offset="0.5" variance="0.10000000149011612,0.10000000149011612,0.20000000298023224,0.20000000298023224" />
			<input>
				<port id="0">
					<dim>1</dim>
					<dim>128</dim>
					<dim>1</dim>
					<dim>1</dim>
				</port>
				<port id="1">
					<dim>1</dim>
					<dim>3</dim>
					<dim>300</dim>
					<dim>300</dim>
				</port>
			</input>
			<output>
				<port id="2">
					<dim>1</dim>
					<dim>2</dim>
					<dim>24</dim>
				</port>
			</output>
		</layer>
		<layer name="conv17_2_mbox_loc" type="Convolution" precision="FP32" id="74">
			<data dilations="1,1" group="1" kernel="1,1" output="24" pads_begin="0,0" pads_end="0,0" quantization_level="I8" strides="1,1" />
			<input>
				<port id="0">
					<dim>1</dim>
					<dim>128</dim>
					<dim>1</dim>
					<dim>1</dim>
				</port>
			</input>
			<output>
				<port id="1">
					<dim>1</dim>
					<dim>24</dim>
					<dim>1</dim>
					<dim>1</dim>
				</port>
			</output>
			<blobs>
				<biases offset="21671204" size="96" />
				<weights offset="21671300" size="12288" />
			</blobs>
		</layer>
		<layer name="conv17_2_mbox_loc_perm" type="Permute" precision="FP32" id="75">
			<data order="0,2,3,1" />
			<input>
				<port id="0">
					<dim>1</dim>
					<dim>24</dim>
					<dim>1</dim>
					<dim>1</dim>
				</port>
			</input>
			<output>
				<port id="1">
					<dim>1</dim>
					<dim>1</dim>
					<dim>1</dim>
					<dim>24</dim>
				</port>
			</output>
		</layer>
		<layer name="conv17_2_mbox_loc_flat" type="Flatten" precision="FP32" id="76">
			<data axis="1" end_axis="-1" />
			<input>
				<port id="0">
					<dim>1</dim>
					<dim>1</dim>
					<dim>1</dim>
					<dim>24</dim>
				</port>
			</input>
			<output>
				<port id="1">
					<dim>1</dim>
					<dim>24</dim>
				</port>
			</output>
		</layer>
		<layer name="conv17_2_mbox_conf" type="Convolution" precision="FP32" id="77">
			<data dilations="1,1" group="1" kernel="1,1" output="126" pads_begin="0,0" pads_end="0,0" quantization_level="I8" strides="1,1" />
			<input>
				<port id="0">
					<dim>1</dim>
					<dim>128</dim>
					<dim>1</dim>
					<dim>1</dim>
				</port>
			</input>
			<output>
				<port id="1">
					<dim>1</dim>
					<dim>126</dim>
					<dim>1</dim>
					<dim>1</dim>
				</port>
			</output>
			<blobs>
				<biases offset="21683588" size="504" />
				<weights offset="21684092" size="64512" />
			</blobs>
		</layer>
		<layer name="conv17_2_mbox_conf_perm" type="Permute" precision="FP32" id="78">
			<data order="0,2,3,1" />
			<input>
				<port id="0">
					<dim>1</dim>
					<dim>126</dim>
					<dim>1</dim>
					<dim>1</dim>
				</port>
			</input>
			<output>
				<port id="1">
					<dim>1</dim>
					<dim>1</dim>
					<dim>1</dim>
					<dim>126</dim>
				</port>
			</output>
		</layer>
		<layer name="conv17_2_mbox_conf_flat" type="Flatten" precision="FP32" id="79">
			<data axis="1" end_axis="-1" />
			<input>
				<port id="0">
					<dim>1</dim>
					<dim>1</dim>
					<dim>1</dim>
					<dim>126</dim>
				</port>
			</input>
			<output>
				<port id="1">
					<dim>1</dim>
					<dim>126</dim>
				</port>
			</output>
		</layer>
		<layer name="conv16_2_mbox_priorbox" type="PriorBox" precision="FP32" id="80">
			<data aspect_ratio="2.0,3.0" clip="0" flip="1" max_size="285.0" min_size="240.0" offset="0.5" variance="0.10000000149011612,0.10000000149011612,0.20000000298023224,0.20000000298023224" />
			<input>
				<port id="0">
					<dim>1</dim>
					<dim>256</dim>
					<dim>2</dim>
					<dim>2</dim>
				</port>
				<port id="1">
					<dim>1</dim>
					<dim>3</dim>
					<dim>300</dim>
					<dim>300</dim>
				</port>
			</input>
			<output>
				<port id="2">
					<dim>1</dim>
					<dim>2</dim>
					<dim>96</dim>
				</port>
			</output>
		</layer>
		<layer name="conv16_2_mbox_loc" type="Convolution" precision="FP32" id="81">
			<data dilations="1,1" group="1" kernel="1,1" output="24" pads_begin="0,0" pads_end="0,0" quantization_level="I8" strides="1,1" />
			<input>
				<port id="0">
					<dim>1</dim>
					<dim>256</dim>
					<dim>2</dim>
					<dim>2</dim>
				</port>
			</input>
			<output>
				<port id="1">
					<dim>1</dim>
					<dim>24</dim>
					<dim>2</dim>
					<dim>2</dim>
				</port>
			</output>
			<blobs>
				<biases offset="21748604" size="96" />
				<weights offset="21748700" size="24576" />
			</blobs>
		</layer>
		<layer name="conv16_2_mbox_loc_perm" type="Permute" precision="FP32" id="82">
			<data order="0,2,3,1" />
			<input>
				<port id="0">
					<dim>1</dim>
					<dim>24</dim>
					<dim>2</dim>
					<dim>2</dim>
				</port>
			</input>
			<output>
				<port id="1">
					<dim>1</dim>
					<dim>2</dim>
					<dim>2</dim>
					<dim>24</dim>
				</port>
			</output>
		</layer>
		<layer name="conv16_2_mbox_loc_flat" type="Flatten" precision="FP32" id="83">
			<data axis="1" end_axis="-1" />
			<input>
				<port id="0">
					<dim>1</dim>
					<dim>2</dim>
					<dim>2</dim>
					<dim>24</dim>
				</port>
			</input>
			<output>
				<port id="1">
					<dim>1</dim>
					<dim>96</dim>
				</port>
			</output>
		</layer>
		<layer name="conv16_2_mbox_conf" type="Convolution" precision="FP32" id="84">
			<data dilations="1,1" group="1" kernel="1,1" output="126" pads_begin="0,0" pads_end="0,0" quantization_level="I8" strides="1,1" />
			<input>
				<port id="0">
					<dim>1</dim>
					<dim>256</dim>
					<dim>2</dim>
					<dim>2</dim>
				</port>
			</input>
			<output>
				<port id="1">
					<dim>1</dim>
					<dim>126</dim>
					<dim>2</dim>
					<dim>2</dim>
				</port>
			</output>
			<blobs>
				<biases offset="21773276" size="504" />
				<weights offset="21773780" size="129024" />
			</blobs>
		</layer>
		<layer name="conv16_2_mbox_conf_perm" type="Permute" precision="FP32" id="85">
			<data order="0,2,3,1" />
			<input>
				<port id="0">
					<dim>1</dim>
					<dim>126</dim>
					<dim>2</dim>
					<dim>2</dim>
				</port>
			</input>
			<output>
				<port id="1">
					<dim>1</dim>
					<dim>2</dim>
					<dim>2</dim>
					<dim>126</dim>
				</port>
			</output>
		</layer>
		<layer name="conv16_2_mbox_conf_flat" type="Flatten" precision="FP32" id="86">
			<data axis="1" end_axis="-1" />
			<input>
				<port id="0">
					<dim>1</dim>
					<dim>2</dim>
					<dim>2</dim>
					<dim>126</dim>
				</port>
			</input>
			<output>
				<port id="1">
					<dim>1</dim>
					<dim>504</dim>
				</port>
			</output>
		</layer>
		<layer name="conv15_2_mbox_priorbox" type="PriorBox" precision="FP32" id="87">
			<data aspect_ratio="2.0,3.0" clip="0" flip="1" max_size="240.0" min_size="195.0" offset="0.5" variance="0.10000000149011612,0.10000000149011612,0.20000000298023224,0.20000000298023224" />
			<input>
				<port id="0">
					<dim>1</dim>
					<dim>256</dim>
					<dim>3</dim>
					<dim>3</dim>
				</port>
				<port id="1">
					<dim>1</dim>
					<dim>3</dim>
					<dim>300</dim>
					<dim>300</dim>
				</port>
			</input>
			<output>
				<port id="2">
					<dim>1</dim>
					<dim>2</dim>
					<dim>216</dim>
				</port>
			</output>
		</layer>
		<layer name="conv15_2_mbox_loc" type="Convolution" precision="FP32" id="88">
			<data dilations="1,1" group="1" kernel="1,1" output="24" pads_begin="0,0" pads_end="0,0" quantization_level="I8" strides="1,1" />
			<input>
				<port id="0">
					<dim>1</dim>
					<dim>256</dim>
					<dim>3</dim>
					<dim>3</dim>
				</port>
			</input>
			<output>
				<port id="1">
					<dim>1</dim>
					<dim>24</dim>
					<dim>3</dim>
					<dim>3</dim>
				</port>
			</output>
			<blobs>
				<biases offset="21902804" size="96" />
				<weights offset="21902900" size="24576" />
			</blobs>
		</layer>
		<layer name="conv15_2_mbox_loc_perm" type="Permute" precision="FP32" id="89">
			<data order="0,2,3,1" />
			<input>
				<port id="0">
					<dim>1</dim>
					<dim>24</dim>
					<dim>3</dim>
					<dim>3</dim>
				</port>
			</input>
			<output>
				<port id="1">
					<dim>1</dim>
					<dim>3</dim>
					<dim>3</dim>
					<dim>24</dim>
				</port>
			</output>
		</layer>
		<layer name="conv15_2_mbox_loc_flat" type="Flatten" precision="FP32" id="90">
			<data axis="1" end_axis="-1" />
			<input>
				<port id="0">
					<dim>1</dim>
					<dim>3</dim>
					<dim>3</dim>
					<dim>24</dim>
				</port>
			</input>
			<output>
				<port id="1">
					<dim>1</dim>
					<dim>216</dim>
				</port>
			</output>
		</layer>
		<layer name="conv15_2_mbox_conf" type="Convolution" precision="FP32" id="91">
			<data dilations="1,1" group="1" kernel="1,1" output="126" pads_begin="0,0" pads_end="0,0" quantization_level="I8" strides="1,1" />
			<input>
				<port id="0">
					<dim>1</dim>
					<dim>256</dim>
					<dim>3</dim>
					<dim>3</dim>
				</port>
			</input>
			<output>
				<port id="1">
					<dim>1</dim>
					<dim>126</dim>
					<dim>3</dim>
					<dim>3</dim>
				</port>
			</output>
			<blobs>
				<biases offset="21927476" size="504" />
				<weights offset="21927980" size="129024" />
			</blobs>
		</layer>
		<layer name="conv15_2_mbox_conf_perm" type="Permute" precision="FP32" id="92">
			<data order="0,2,3,1" />
			<input>
				<port id="0">
					<dim>1</dim>
					<dim>126</dim>
					<dim>3</dim>
					<dim>3</dim>
				</port>
			</input>
			<output>
				<port id="1">
					<dim>1</dim>
					<dim>3</dim>
					<dim>3</dim>
					<dim>126</dim>
				</port>
			</output>
		</layer>
		<layer name="conv15_2_mbox_conf_flat" type="Flatten" precision="FP32" id="93">
			<data axis="1" end_axis="-1" />
			<input>
				<port id="0">
					<dim>1</dim>
					<dim>3</dim>
					<dim>3</dim>
					<dim>126</dim>
				</port>
			</input>
			<output>
				<port id="1">
					<dim>1</dim>
					<dim>1134</dim>
				</port>
			</output>
		</layer>
		<layer name="conv14_2_mbox_priorbox" type="PriorBox" precision="FP32" id="94">
			<data aspect_ratio="2.0,3.0" clip="0" flip="1" max_size="195.0" min_size="150.0" offset="0.5" variance="0.10000000149011612,0.10000000149011612,0.20000000298023224,0.20000000298023224" />
			<input>
				<port id="0">
					<dim>1</dim>
					<dim>512</dim>
					<dim>5</dim>
					<dim>5</dim>
				</port>
				<port id="1">
					<dim>1</dim>
					<dim>3</dim>
					<dim>300</dim>
					<dim>300</dim>
				</port>
			</input>
			<output>
				<port id="2">
					<dim>1</dim>
					<dim>2</dim>
					<dim>600</dim>
				</port>
			</output>
		</layer>
		<layer name="conv14_2_mbox_loc" type="Convolution" precision="FP32" id="95">
			<data dilations="1,1" group="1" kernel="1,1" output="24" pads_begin="0,0" pads_end="0,0" quantization_level="I8" strides="1,1" />
			<input>
				<port id="0">
					<dim>1</dim>
					<dim>512</dim>
					<dim>5</dim>
					<dim>5</dim>
				</port>
			</input>
			<output>
				<port id="1">
					<dim>1</dim>
					<dim>24</dim>
					<dim>5</dim>
					<dim>5</dim>
				</port>
			</output>
			<blobs>
				<biases offset="22057004" size="96" />
				<weights offset="22057100" size="49152" />
			</blobs>
		</layer>
		<layer name="conv14_2_mbox_loc_perm" type="Permute" precision="FP32" id="96">
			<data order="0,2,3,1" />
			<input>
				<port id="0">
					<dim>1</dim>
					<dim>24</dim>
					<dim>5</dim>
					<dim>5</dim>
				</port>
			</input>
			<output>
				<port id="1">
					<dim>1</dim>
					<dim>5</dim>
					<dim>5</dim>
					<dim>24</dim>
				</port>
			</output>
		</layer>
		<layer name="conv14_2_mbox_loc_flat" type="Flatten" precision="FP32" id="97">
			<data axis="1" end_axis="-1" />
			<input>
				<port id="0">
					<dim>1</dim>
					<dim>5</dim>
					<dim>5</dim>
					<dim>24</dim>
				</port>
			</input>
			<output>
				<port id="1">
					<dim>1</dim>
					<dim>600</dim>
				</port>
			</output>
		</layer>
		<layer name="conv14_2_mbox_conf" type="Convolution" precision="FP32" id="98">
			<data dilations="1,1" group="1" kernel="1,1" output="126" pads_begin="0,0" pads_end="0,0" quantization_level="I8" strides="1,1" />
			<input>
				<port id="0">
					<dim>1</dim>
					<dim>512</dim>
					<dim>5</dim>
					<dim>5</dim>
				</port>
			</input>
			<output>
				<port id="1">
					<dim>1</dim>
					<dim>126</dim>
					<dim>5</dim>
					<dim>5</dim>
				</port>
			</output>
			<blobs>
				<biases offset="22106252" size="504" />
				<weights offset="22106756" size="258048" />
			</blobs>
		</layer>
		<layer name="conv14_2_mbox_conf_perm" type="Permute" precision="FP32" id="99">
			<data order="0,2,3,1" />
			<input>
				<port id="0">
					<dim>1</dim>
					<dim>126</dim>
					<dim>5</dim>
					<dim>5</dim>
				</port>
			</input>
			<output>
				<port id="1">
					<dim>1</dim>
					<dim>5</dim>
					<dim>5</dim>
					<dim>126</dim>
				</port>
			</output>
		</layer>
		<layer name="conv14_2_mbox_conf_flat" type="Flatten" precision="FP32" id="100">
			<data axis="1" end_axis="-1" />
			<input>
				<port id="0">
					<dim>1</dim>
					<dim>5</dim>
					<dim>5</dim>
					<dim>126</dim>
				</port>
			</input>
			<output>
				<port id="1">
					<dim>1</dim>
					<dim>3150</dim>
				</port>
			</output>
		</layer>
		<layer name="conv13_mbox_priorbox" type="PriorBox" precision="FP32" id="101">
			<data aspect_ratio="2.0,3.0" clip="0" flip="1" max_size="150.0" min_size="105.0" offset="0.5" variance="0.10000000149011612,0.10000000149011612,0.20000000298023224,0.20000000298023224" />
			<input>
				<port id="0">
					<dim>1</dim>
					<dim>1024</dim>
					<dim>10</dim>
					<dim>10</dim>
				</port>
				<port id="1">
					<dim>1</dim>
					<dim>3</dim>
					<dim>300</dim>
					<dim>300</dim>
				</port>
			</input>
			<output>
				<port id="2">
					<dim>1</dim>
					<dim>2</dim>
					<dim>2400</dim>
				</port>
			</output>
		</layer>
		<layer name="conv13_mbox_loc" type="Convolution" precision="FP32" id="102">
			<data dilations="1,1" group="1" kernel="1,1" output="24" pads_begin="0,0" pads_end="0,0" quantization_level="I8" strides="1,1" />
			<input>
				<port id="0">
					<dim>1</dim>
					<dim>1024</dim>
					<dim>10</dim>
					<dim>10</dim>
				</port>
			</input>
			<output>
				<port id="1">
					<dim>1</dim>
					<dim>24</dim>
					<dim>10</dim>
					<dim>10</dim>
				</port>
			</output>
			<blobs>
				<biases offset="22364804" size="96" />
				<weights offset="22364900" size="98304" />
			</blobs>
		</layer>
		<layer name="conv13_mbox_loc_perm" type="Permute" precision="FP32" id="103">
			<data order="0,2,3,1" />
			<input>
				<port id="0">
					<dim>1</dim>
					<dim>24</dim>
					<dim>10</dim>
					<dim>10</dim>
				</port>
			</input>
			<output>
				<port id="1">
					<dim>1</dim>
					<dim>10</dim>
					<dim>10</dim>
					<dim>24</dim>
				</port>
			</output>
		</layer>
		<layer name="conv13_mbox_loc_flat" type="Flatten" precision="FP32" id="104">
			<data axis="1" end_axis="-1" />
			<input>
				<port id="0">
					<dim>1</dim>
					<dim>10</dim>
					<dim>10</dim>
					<dim>24</dim>
				</port>
			</input>
			<output>
				<port id="1">
					<dim>1</dim>
					<dim>2400</dim>
				</port>
			</output>
		</layer>
		<layer name="conv13_mbox_conf" type="Convolution" precision="FP32" id="105">
			<data dilations="1,1" group="1" kernel="1,1" output="126" pads_begin="0,0" pads_end="0,0" quantization_level="I8" strides="1,1" />
			<input>
				<port id="0">
					<dim>1</dim>
					<dim>1024</dim>
					<dim>10</dim>
					<dim>10</dim>
				</port>
			</input>
			<output>
				<port id="1">
					<dim>1</dim>
					<dim>126</dim>
					<dim>10</dim>
					<dim>10</dim>
				</port>
			</output>
			<blobs>
				<biases offset="22463204" size="504" />
				<weights offset="22463708" size="516096" />
			</blobs>
		</layer>
		<layer name="conv13_mbox_conf_perm" type="Permute" precision="FP32" id="106">
			<data order="0,2,3,1" />
			<input>
				<port id="0">
					<dim>1</dim>
					<dim>126</dim>
					<dim>10</dim>
					<dim>10</dim>
				</port>
			</input>
			<output>
				<port id="1">
					<dim>1</dim>
					<dim>10</dim>
					<dim>10</dim>
					<dim>126</dim>
				</port>
			</output>
		</layer>
		<layer name="conv13_mbox_conf_flat" type="Flatten" precision="FP32" id="107">
			<data axis="1" end_axis="-1" />
			<input>
				<port id="0">
					<dim>1</dim>
					<dim>10</dim>
					<dim>10</dim>
					<dim>126</dim>
				</port>
			</input>
			<output>
				<port id="1">
					<dim>1</dim>
					<dim>12600</dim>
				</port>
			</output>
		</layer>
		<layer name="conv11_mbox_priorbox" type="PriorBox" precision="FP32" id="108">
			<data aspect_ratio="2.0" clip="0" flip="1" max_size="" min_size="60.0" offset="0.5" variance="0.10000000149011612,0.10000000149011612,0.20000000298023224,0.20000000298023224" />
			<input>
				<port id="0">
					<dim>1</dim>
					<dim>512</dim>
					<dim>19</dim>
					<dim>19</dim>
				</port>
				<port id="1">
					<dim>1</dim>
					<dim>3</dim>
					<dim>300</dim>
					<dim>300</dim>
				</port>
			</input>
			<output>
				<port id="2">
					<dim>1</dim>
					<dim>2</dim>
					<dim>4332</dim>
				</port>
			</output>
		</layer>
		<layer name="mbox_priorbox" type="Concat" precision="FP32" id="109">
			<data axis="2" />
			<input>
				<port id="0">
					<dim>1</dim>
					<dim>2</dim>
					<dim>4332</dim>
				</port>
				<port id="1">
					<dim>1</dim>
					<dim>2</dim>
					<dim>2400</dim>
				</port>
				<port id="2">
					<dim>1</dim>
					<dim>2</dim>
					<dim>600</dim>
				</port>
				<port id="3">
					<dim>1</dim>
					<dim>2</dim>
					<dim>216</dim>
				</port>
				<port id="4">
					<dim>1</dim>
					<dim>2</dim>
					<dim>96</dim>
				</port>
				<port id="5">
					<dim>1</dim>
					<dim>2</dim>
					<dim>24</dim>
				</port>
			</input>
			<output>
				<port id="6">
					<dim>1</dim>
					<dim>2</dim>
					<dim>7668</dim>
				</port>
			</output>
		</layer>
		<layer name="conv11_mbox_loc" type="Convolution" precision="FP32" id="110">
			<data dilations="1,1" group="1" kernel="1,1" output="12" pads_begin="0,0" pads_end="0,0" quantization_level="I8" strides="1,1" />
			<input>
				<port id="0">
					<dim>1</dim>
					<dim>512</dim>
					<dim>19</dim>
					<dim>19</dim>
				</port>
			</input>
			<output>
				<port id="1">
					<dim>1</dim>
					<dim>12</dim>
					<dim>19</dim>
					<dim>19</dim>
				</port>
			</output>
			<blobs>
				<biases offset="22979804" size="48" />
				<weights offset="22979852" size="24576" />
			</blobs>
		</layer>
		<layer name="conv11_mbox_loc_perm" type="Permute" precision="FP32" id="111">
			<data order="0,2,3,1" />
			<input>
				<port id="0">
					<dim>1</dim>
					<dim>12</dim>
					<dim>19</dim>
					<dim>19</dim>
				</port>
			</input>
			<output>
				<port id="1">
					<dim>1</dim>
					<dim>19</dim>
					<dim>19</dim>
					<dim>12</dim>
				</port>
			</output>
		</layer>
		<layer name="conv11_mbox_loc_flat" type="Flatten" precision="FP32" id="112">
			<data axis="1" end_axis="-1" />
			<input>
				<port id="0">
					<dim>1</dim>
					<dim>19</dim>
					<dim>19</dim>
					<dim>12</dim>
				</port>
			</input>
			<output>
				<port id="1">
					<dim>1</dim>
					<dim>4332</dim>
				</port>
			</output>
		</layer>
		<layer name="mbox_loc" type="Concat" precision="FP32" id="113">
			<data axis="1" />
			<input>
				<port id="0">
					<dim>1</dim>
					<dim>4332</dim>
				</port>
				<port id="1">
					<dim>1</dim>
					<dim>2400</dim>
				</port>
				<port id="2">
					<dim>1</dim>
					<dim>600</dim>
				</port>
				<port id="3">
					<dim>1</dim>
					<dim>216</dim>
				</port>
				<port id="4">
					<dim>1</dim>
					<dim>96</dim>
				</port>
				<port id="5">
					<dim>1</dim>
					<dim>24</dim>
				</port>
			</input>
			<output>
				<port id="6">
					<dim>1</dim>
					<dim>7668</dim>
				</port>
			</output>
		</layer>
		<layer name="conv11_mbox_conf" type="Convolution" precision="FP32" id="114">
			<data dilations="1,1" group="1" kernel="1,1" output="63" pads_begin="0,0" pads_end="0,0" quantization_level="I8" strides="1,1" />
			<input>
				<port id="0">
					<dim>1</dim>
					<dim>512</dim>
					<dim>19</dim>
					<dim>19</dim>
				</port>
			</input>
			<output>
				<port id="1">
					<dim>1</dim>
					<dim>63</dim>
					<dim>19</dim>
					<dim>19</dim>
				</port>
			</output>
			<blobs>
				<biases offset="23004428" size="252" />
				<weights offset="23004680" size="129024" />
			</blobs>
		</layer>
		<layer name="conv11_mbox_conf_perm" type="Permute" precision="FP32" id="115">
			<data order="0,2,3,1" />
			<input>
				<port id="0">
					<dim>1</dim>
					<dim>63</dim>
					<dim>19</dim>
					<dim>19</dim>
				</port>
			</input>
			<output>
				<port id="1">
					<dim>1</dim>
					<dim>19</dim>
					<dim>19</dim>
					<dim>63</dim>
				</port>
			</output>
		</layer>
		<layer name="conv11_mbox_conf_flat" type="Flatten" precision="FP32" id="116">
			<data axis="1" end_axis="-1" />
			<input>
				<port id="0">
					<dim>1</dim>
					<dim>19</dim>
					<dim>19</dim>
					<dim>63</dim>
				</port>
			</input>
			<output>
				<port id="1">
					<dim>1</dim>
					<dim>22743</dim>
				</port>
			</output>
		</layer>
		<layer name="mbox_conf" type="Concat" precision="FP32" id="117">
			<data axis="1" />
			<input>
				<port id="0">
					<dim>1</dim>
					<dim>22743</dim>
				</port>
				<port id="1">
					<dim>1</dim>
					<dim>12600</dim>
				</port>
				<port id="2">
					<dim>1</dim>
					<dim>3150</dim>
				</port>
				<port id="3">
					<dim>1</dim>
					<dim>1134</dim>
				</port>
				<port id="4">
					<dim>1</dim>
					<dim>504</dim>
				</port>
				<port id="5">
					<dim>1</dim>
					<dim>126</dim>
				</port>
			</input>
			<output>
				<port id="6">
					<dim>1</dim>
					<dim>40257</dim>
				</port>
			</output>
		</layer>
		<layer name="mbox_conf_reshape" type="Reshape" precision="FP32" id="118">
			<data axis="0" dim="" num_axes="-1" />
			<input>
				<port id="0">
					<dim>1</dim>
					<dim>40257</dim>
				</port>
				<port id="1">
					<dim>3</dim>
				</port>
			</input>
			<output>
				<port id="2">
					<dim>1</dim>
					<dim>1917</dim>
					<dim>21</dim>
				</port>
			</output>
		</layer>
		<layer name="mbox_conf_softmax" type="SoftMax" precision="FP32" id="119">
			<data axis="2" />
			<input>
				<port id="0">
					<dim>1</dim>
					<dim>1917</dim>
					<dim>21</dim>
				</port>
			</input>
			<output>
				<port id="1">
					<dim>1</dim>
					<dim>1917</dim>
					<dim>21</dim>
				</port>
			</output>
		</layer>
		<layer name="mbox_conf_flatten" type="Flatten" precision="FP32" id="120">
			<data axis="1" end_axis="-1" />
			<input>
				<port id="0">
					<dim>1</dim>
					<dim>1917</dim>
					<dim>21</dim>
				</port>
			</input>
			<output>
				<port id="1">
					<dim>1</dim>
					<dim>40257</dim>
				</port>
			</output>
		</layer>
		<layer name="detection_out" type="DetectionOutput" precision="FP32" id="121">
			<data background_label_id="0" code_type="caffe.PriorBoxParameter.CENTER_SIZE" confidence_threshold="0.009999999776482582" eta="1.0" input_height="1" input_width="1" keep_top_k="200" nms_threshold="0.44999998807907104" normalized="1" num_classes="21" share_location="1" top_k="400" variance_encoded_in_target="0" visualize="False" />
			<input>
				<port id="0">
					<dim>1</dim>
					<dim>7668</dim>
				</port>
				<port id="1">
					<dim>1</dim>
					<dim>40257</dim>
				</port>
				<port id="2">
					<dim>1</dim>
					<dim>2</dim>
					<dim>7668</dim>
				</port>
			</input>
			<output>
				<port id="3">
					<dim>1</dim>
					<dim>1</dim>
					<dim>200</dim>
					<dim>7</dim>
				</port>
			</output>
		</layer>
	</layers>
	<edges>
		<edge from-layer="0" from-port="0" to-layer="118" to-port="1" />
		<edge from-layer="1" from-port="0" to-layer="2" to-port="0" />
		<edge from-layer="2" from-port="1" to-layer="3" to-port="0" />
		<edge from-layer="2" from-port="1" to-layer="108" to-port="1" />
		<edge from-layer="2" from-port="1" to-layer="101" to-port="1" />
		<edge from-layer="2" from-port="1" to-layer="94" to-port="1" />
		<edge from-layer="2" from-port="1" to-layer="87" to-port="1" />
		<edge from-layer="2" from-port="1" to-layer="80" to-port="1" />
		<edge from-layer="2" from-port="1" to-layer="73" to-port="1" />
		<edge from-layer="3" from-port="1" to-layer="4" to-port="0" />
		<edge from-layer="4" from-port="1" to-layer="5" to-port="0" />
		<edge from-layer="5" from-port="1" to-layer="6" to-port="0" />
		<edge from-layer="6" from-port="1" to-layer="7" to-port="0" />
		<edge from-layer="7" from-port="1" to-layer="8" to-port="0" />
		<edge from-layer="8" from-port="1" to-layer="9" to-port="0" />
		<edge from-layer="9" from-port="1" to-layer="10" to-port="0" />
		<edge from-layer="10" from-port="1" to-layer="11" to-port="0" />
		<edge from-layer="11" from-port="1" to-layer="12" to-port="0" />
		<edge from-layer="12" from-port="1" to-layer="13" to-port="0" />
		<edge from-layer="13" from-port="1" to-layer="14" to-port="0" />
		<edge from-layer="14" from-port="1" to-layer="15" to-port="0" />
		<edge from-layer="15" from-port="1" to-layer="16" to-port="0" />
		<edge from-layer="16" from-port="1" to-layer="17" to-port="0" />
		<edge from-layer="17" from-port="1" to-layer="18" to-port="0" />
		<edge from-layer="18" from-port="1" to-layer="19" to-port="0" />
		<edge from-layer="19" from-port="1" to-layer="20" to-port="0" />
		<edge from-layer="20" from-port="1" to-layer="21" to-port="0" />
		<edge from-layer="21" from-port="1" to-layer="22" to-port="0" />
		<edge from-layer="22" from-port="1" to-layer="23" to-port="0" />
		<edge from-layer="23" from-port="1" to-layer="24" to-port="0" />
		<edge from-layer="24" from-port="1" to-layer="25" to-port="0" />
		<edge from-layer="25" from-port="1" to-layer="26" to-port="0" />
		<edge from-layer="26" from-port="1" to-layer="27" to-port="0" />
		<edge from-layer="27" from-port="1" to-layer="28" to-port="0" />
		<edge from-layer="28" from-port="1" to-layer="29" to-port="0" />
		<edge from-layer="29" from-port="1" to-layer="30" to-port="0" />
		<edge from-layer="30" from-port="1" to-layer="31" to-port="0" />
		<edge from-layer="31" from-port="1" to-layer="32" to-port="0" />
		<edge from-layer="32" from-port="1" to-layer="33" to-port="0" />
		<edge from-layer="33" from-port="1" to-layer="34" to-port="0" />
		<edge from-layer="34" from-port="1" to-layer="35" to-port="0" />
		<edge from-layer="35" from-port="1" to-layer="36" to-port="0" />
		<edge from-layer="36" from-port="1" to-layer="37" to-port="0" />
		<edge from-layer="37" from-port="1" to-layer="38" to-port="0" />
		<edge from-layer="38" from-port="1" to-layer="39" to-port="0" />
		<edge from-layer="39" from-port="1" to-layer="40" to-port="0" />
		<edge from-layer="40" from-port="1" to-layer="41" to-port="0" />
		<edge from-layer="41" from-port="1" to-layer="42" to-port="0" />
		<edge from-layer="42" from-port="1" to-layer="43" to-port="0" />
		<edge from-layer="43" from-port="1" to-layer="44" to-port="0" />
		<edge from-layer="44" from-port="1" to-layer="45" to-port="0" />
		<edge from-layer="45" from-port="1" to-layer="46" to-port="0" />
		<edge from-layer="46" from-port="1" to-layer="47" to-port="0" />
		<edge from-layer="47" from-port="1" to-layer="48" to-port="0" />
		<edge from-layer="48" from-port="1" to-layer="114" to-port="0" />
		<edge from-layer="48" from-port="1" to-layer="110" to-port="0" />
		<edge from-layer="48" from-port="1" to-layer="108" to-port="0" />
		<edge from-layer="48" from-port="1" to-layer="49" to-port="0" />
		<edge from-layer="49" from-port="1" to-layer="50" to-port="0" />
		<edge from-layer="50" from-port="1" to-layer="51" to-port="0" />
		<edge from-layer="51" from-port="1" to-layer="52" to-port="0" />
		<edge from-layer="52" from-port="1" to-layer="53" to-port="0" />
		<edge from-layer="53" from-port="1" to-layer="54" to-port="0" />
		<edge from-layer="54" from-port="1" to-layer="55" to-port="0" />
		<edge from-layer="55" from-port="1" to-layer="56" to-port="0" />
		<edge from-layer="56" from-port="1" to-layer="105" to-port="0" />
		<edge from-layer="56" from-port="1" to-layer="102" to-port="0" />
		<edge from-layer="56" from-port="1" to-layer="101" to-port="0" />
		<edge from-layer="56" from-port="1" to-layer="57" to-port="0" />
		<edge from-layer="57" from-port="1" to-layer="58" to-port="0" />
		<edge from-layer="58" from-port="1" to-layer="59" to-port="0" />
		<edge from-layer="59" from-port="1" to-layer="60" to-port="0" />
		<edge from-layer="60" from-port="1" to-layer="98" to-port="0" />
		<edge from-layer="60" from-port="1" to-layer="95" to-port="0" />
		<edge from-layer="60" from-port="1" to-layer="94" to-port="0" />
		<edge from-layer="60" from-port="1" to-layer="61" to-port="0" />
		<edge from-layer="61" from-port="1" to-layer="62" to-port="0" />
		<edge from-layer="62" from-port="1" to-layer="63" to-port="0" />
		<edge from-layer="63" from-port="1" to-layer="64" to-port="0" />
		<edge from-layer="64" from-port="1" to-layer="91" to-port="0" />
		<edge from-layer="64" from-port="1" to-layer="88" to-port="0" />
		<edge from-layer="64" from-port="1" to-layer="87" to-port="0" />
		<edge from-layer="64" from-port="1" to-layer="65" to-port="0" />
		<edge from-layer="65" from-port="1" to-layer="66" to-port="0" />
		<edge from-layer="66" from-port="1" to-layer="67" to-port="0" />
		<edge from-layer="67" from-port="1" to-layer="68" to-port="0" />
		<edge from-layer="68" from-port="1" to-layer="84" to-port="0" />
		<edge from-layer="68" from-port="1" to-layer="81" to-port="0" />
		<edge from-layer="68" from-port="1" to-layer="80" to-port="0" />
		<edge from-layer="68" from-port="1" to-layer="69" to-port="0" />
		<edge from-layer="69" from-port="1" to-layer="70" to-port="0" />
		<edge from-layer="70" from-port="1" to-layer="71" to-port="0" />
		<edge from-layer="71" from-port="1" to-layer="72" to-port="0" />
		<edge from-layer="72" from-port="1" to-layer="77" to-port="0" />
		<edge from-layer="72" from-port="1" to-layer="74" to-port="0" />
		<edge from-layer="72" from-port="1" to-layer="73" to-port="0" />
		<edge from-layer="73" from-port="2" to-layer="109" to-port="5" />
		<edge from-layer="74" from-port="1" to-layer="75" to-port="0" />
		<edge from-layer="75" from-port="1" to-layer="76" to-port="0" />
		<edge from-layer="76" from-port="1" to-layer="113" to-port="5" />
		<edge from-layer="77" from-port="1" to-layer="78" to-port="0" />
		<edge from-layer="78" from-port="1" to-layer="79" to-port="0" />
		<edge from-layer="79" from-port="1" to-layer="117" to-port="5" />
		<edge from-layer="80" from-port="2" to-layer="109" to-port="4" />
		<edge from-layer="81" from-port="1" to-layer="82" to-port="0" />
		<edge from-layer="82" from-port="1" to-layer="83" to-port="0" />
		<edge from-layer="83" from-port="1" to-layer="113" to-port="4" />
		<edge from-layer="84" from-port="1" to-layer="85" to-port="0" />
		<edge from-layer="85" from-port="1" to-layer="86" to-port="0" />
		<edge from-layer="86" from-port="1" to-layer="117" to-port="4" />
		<edge from-layer="87" from-port="2" to-layer="109" to-port="3" />
		<edge from-layer="88" from-port="1" to-layer="89" to-port="0" />
		<edge from-layer="89" from-port="1" to-layer="90" to-port="0" />
		<edge from-layer="90" from-port="1" to-layer="113" to-port="3" />
		<edge from-layer="91" from-port="1" to-layer="92" to-port="0" />
		<edge from-layer="92" from-port="1" to-layer="93" to-port="0" />
		<edge from-layer="93" from-port="1" to-layer="117" to-port="3" />
		<edge from-layer="94" from-port="2" to-layer="109" to-port="2" />
		<edge from-layer="95" from-port="1" to-layer="96" to-port="0" />
		<edge from-layer="96" from-port="1" to-layer="97" to-port="0" />
		<edge from-layer="97" from-port="1" to-layer="113" to-port="2" />
		<edge from-layer="98" from-port="1" to-layer="99" to-port="0" />
		<edge from-layer="99" from-port="1" to-layer="100" to-port="0" />
		<edge from-layer="100" from-port="1" to-layer="117" to-port="2" />
		<edge from-layer="101" from-port="2" to-layer="109" to-port="1" />
		<edge from-layer="102" from-port="1" to-layer="103" to-port="0" />
		<edge from-layer="103" from-port="1" to-layer="104" to-port="0" />
		<edge from-layer="104" from-port="1" to-layer="113" to-port="1" />
		<edge from-layer="105" from-port="1" to-layer="106" to-port="0" />
		<edge from-layer="106" from-port="1" to-layer="107" to-port="0" />
		<edge from-layer="107" from-port="1" to-layer="117" to-port="1" />
		<edge from-layer="108" from-port="2" to-layer="109" to-port="0" />
		<edge from-layer="109" from-port="6" to-layer="121" to-port="2" />
		<edge from-layer="110" from-port="1" to-layer="111" to-port="0" />
		<edge from-layer="111" from-port="1" to-layer="112" to-port="0" />
		<edge from-layer="112" from-port="1" to-layer="113" to-port="0" />
		<edge from-layer="113" from-port="6" to-layer="121" to-port="0" />
		<edge from-layer="114" from-port="1" to-layer="115" to-port="0" />
		<edge from-layer="115" from-port="1" to-layer="116" to-port="0" />
		<edge from-layer="116" from-port="1" to-layer="117" to-port="0" />
		<edge from-layer="117" from-port="6" to-layer="118" to-port="0" />
		<edge from-layer="118" from-port="2" to-layer="119" to-port="0" />
		<edge from-layer="119" from-port="1" to-layer="120" to-port="0" />
		<edge from-layer="120" from-port="1" to-layer="121" to-port="1" />
	</edges>
	<statistics>
		<layer>
			<name>Mul1_/Fused_Mul_/FusedScaleShift_</name>
			<min>-1.000000, -1.000000, -1.000000</min>
			<max>1.000000, 1.000000, 1.000000</max>
		</layer>
		<layer>
			<name>conv0</name>
			<min>… 0.245736</min>
			<max>… 2.394380</max>
		</layer>
		<layer>
			<name>conv0/relu</name>
			<min>… 0.245736</min>
			<max>… 2.394380</max>
		</layer>
		<layer>
			<name>conv1</name>
			<min>… -2.058554</min>
			<max>… 7.249191</max>
		</layer>
		<layer>
			<name>conv1/dw</name>
			<min>… -7.843033</min>
			<max>… 3.083901</max>
		</layer>
		<layer>
			<name>conv1/dw/relu</name>
			<min>… -0.000000</min>
			<max>… 3.083901</max>
		</layer>
		<layer>
			<name>conv1/relu</name>
			<min>… -0.000000</min>
			<max>… 7.249191</max>
		</layer>
		<layer>
			<name>conv10</name>
			<min>… -1.647452</min>
			<max>… 3.901603</max>
		</layer>
		<layer>
			<name>conv10/dw</name>
			<min>… -0.928746</min>
			<max>… 3.727950</max>
		</layer>
		<layer>
			<name>conv10/dw/relu</name>
			<min>… -0.000000</min>
			<max>… 3.727950</max>
		</layer>
		<layer>
			<name>conv10/relu</name>
			<min>… -0.000000</min>
			<max>… 3.901603</max>
		</layer>
		<layer>
			<name>conv11</name>
			<min>… -2.052639</min>
			<max>… 1.270816</max>
		</layer>
		<layer>
			<name>conv11/dw</name>
			<min>… -1.034343</min>
			<max>… 3.268585</max>
		</layer>
		<layer>
			<name>conv11/dw/relu</name>
			<min>… -0.000000</min>
			<max>… 3.268585</max>
		</layer>
		<layer>
			<name>conv11/relu</name>
			<min>… -0.000000</min>
			<max>… 1.270816</max>
		</layer>
		<layer>
			<name>conv11_mbox_conf</name>
			<min>… -208.913040</min>
			<max>… -10.746435</max>
		</layer>
		<layer>
			<name>conv11_mbox_conf_flat</name>
			<min>… -60.277431</min>
			<max>… -20.924282</max>
		</layer>
		<layer>
			<name>conv11_mbox_conf_perm</name>
			<min>… -126.673576</min>
			<max>… -8.377726</max>
		</layer>
		<layer>
			<name>conv11_mbox_loc</name>
			<min>-3.463917, -4.630503, -14.277442, -13.075471, -3.821765, -4.286967, -15.700653, -11.459498, -4.023119, -5.019340, -12.800089, -15.966373</min>
			<max>4.511573, 4.721405, 3.435066, 3.489073, 4.768599, 4.662755, 3.377809, 3.358562, 4.198988, 5.131001, 3.471750, 3.635040</max>
		</layer>
		<layer>
			<name>conv11_mbox_loc_flat</name>
			<min>… -8.757296</min>
			<max>… -0.694624</max>
		</layer>
		<layer>
			<name>conv11_mbox_loc_perm</name>
			<min>… -13.945622</min>
			<max>… 3.097238</max>
		</layer>
		<layer>
			<name>conv11_mbox_priorbox</name>
			<min>-0.115106</min>
			<max>1.115106</max>
		</layer>
		<layer>
			<name>conv12</name>
			<min>… 0.814878</min>
			<max>… 2.806671</max>
		</layer>
		<layer>
			<name>conv12/dw</name>
			<min>… 0.407164</min>
			<max>… 3.571950</max>
		</layer>
		<layer>
			<name>conv12/dw/relu</name>
			<min>… 0.407164</min>
			<max>… 3.571950</max>
		</layer>
		<layer>
			<name>conv12/relu</name>
			<min>… 0.814878</min>
			<max>… 2.806671</max>
		</layer>
		<layer>
			<name>conv13</name>
			<min>… -29.820709</min>
			<max>… -0.182957</max>
		</layer>
		<layer>
			<name>conv13/dw</name>
			<min>… -7.903985</min>
			<max>… 2.797757</max>
		</layer>
		<layer>
			<name>conv13/dw/relu</name>
			<min>… -0.000000</min>
			<max>… 2.797757</max>
		</layer>
		<layer>
			<name>conv13/relu</name>
			<min>… -0.000000</min>
			<max>… -0.000000</max>
		</layer>
		<layer>
			<name>conv13_mbox_conf</name>
			<min>… -342.812012</min>
			<max>… -7.383414</max>
		</layer>
		<layer>
			<name>conv13_mbox_conf_flat</name>
			<min>… -342.812012</min>
			<max>… -188.489288</max>
		</layer>
		<layer>
			<name>conv13_mbox_conf_perm</name>
			<min>-459.855774, -124.323212, -137.734863, -101.154541, -114.060394, -110.793983, -109.880249, -105.877289, -98.576256, -447.558228</min>
			<max>10.889432, 10.349478, -2.604813, -3.002217, -3.163245, -2.808933, -2.294967, -0.941283, 3.503507, 8.283268</max>
		</layer>
		<layer>
			<name>conv13_mbox_loc</name>
			<min>… -24.687122</min>
			<max>… 2.347275</max>
		</layer>
		<layer>
			<name>conv13_mbox_loc_flat</name>
			<min>… -24.687122</min>
			<max>… -9.861713</max>
		</layer>
		<layer>
			<name>conv13_mbox_loc_perm</name>
			<min>-31.615341, -5.359633, -3.992794, -4.193301, -4.529535, -4.176563, -4.176964, -3.994720, -4.996229, -25.747849</min>
			<max>17.646023, 3.297319, 3.854762, 3.901102, 4.162098, 3.935882, 3.670028, 3.762904, 3.450947, 12.273009</max>
		</layer>
		<layer>
			<name>conv13_mbox_priorbox</name>
			<min>-0.253109</min>
			<max>1.253109</max>
		</layer>
		<layer>
			<name>conv14_1</name>
			<min>… -2.253798</min>
			<max>… 0.799422</max>
		</layer>
		<layer>
			<name>conv14_1/relu</name>
			<min>… -0.000000</min>
			<max>… 0.799422</max>
		</layer>
		<layer>
			<name>conv14_2</name>
			<min>… -1.705010</min>
			<max>… 2.396390</max>
		</layer>
		<layer>
			<name>conv14_2/relu</name>
			<min>… -0.000000</min>
			<max>… 2.396390</max>
		</layer>
		<layer>
			<name>conv14_2_mbox_conf</name>
			<min>… -95.873047</min>
			<max>… -12.485882</max>
		</layer>
		<layer>
			<name>conv14_2_mbox_conf_flat</name>
			<min>… -90.326843</min>
			<max>… -17.799097</max>
		</layer>
		<layer>
			<name>conv14_2_mbox_conf_perm</name>
			<min>-101.879089, -68.050949, -93.165962, -98.142868, -118.626579</min>
			<max>-3.128379, -3.473999, -3.336033, -3.446862, -3.818676</max>
		</layer>
		<layer>
			<name>conv14_2_mbox_loc</name>
			<min>… -3.273684</min>
			<max>… 0.980529</max>
		</layer>
		<layer>
			<name>conv14_2_mbox_loc_flat</name>
			<min>… -2.932169</min>
			<max>… -1.406249</max>
		</layer>
		<layer>
			<name>conv14_2_mbox_loc_perm</name>
			<min>-2.963607, -3.176404, -3.575371, -3.708831, -3.615200</min>
			<max>3.435683, 3.657241, 3.850495, 3.533173, 3.127820</max>
		</layer>
		<layer>
			<name>conv14_2_mbox_priorbox</name>
			<min>-0.333013</min>
			<max>1.333013</max>
		</layer>
		<layer>
			<name>conv15_1</name>
			<min>… -1.101185</min>
			<max>… 1.102659</max>
		</layer>
		<layer>
			<name>conv15_1/relu</name>
			<min>… -0.000000</min>
			<max>… 1.102659</max>
		</layer>
		<layer>
			<name>conv15_2</name>
			<min>… -1.821450</min>
			<max>… 2.135294</max>
		</layer>
		<layer>
			<name>conv15_2/relu</name>
			<min>… -0.000000</min>
			<max>… 2.135294</max>
		</layer>
		<layer>
			<name>conv15_2_mbox_conf</name>
			<min>… -83.095665</min>
			<max>… -16.329313</max>
		</layer>
		<layer>
			<name>conv15_2_mbox_conf_flat</name>
			<min>… -47.528194</min>
			<max>… -21.440006</max>
		</layer>
		<layer>
			<name>conv15_2_mbox_conf_perm</name>
			<min>-92.777573, -78.984993, -70.269524</min>
			<max>-5.048512, -3.853493, -5.127353</max>
		</layer>
		<layer>
			<name>conv15_2_mbox_loc</name>
			<min>… -3.212322</min>
			<max>… -0.565698</max>
		</layer>
		<layer>
			<name>conv15_2_mbox_loc_flat</name>
			<min>… -2.331290</min>
			<max>… -1.350609</max>
		</layer>
		<layer>
			<name>conv15_2_mbox_loc_perm</name>
			<min>-3.053165, -3.515473, -3.668889</min>
			<max>3.163356, 4.034602, 2.343978</max>
		</layer>
		<layer>
			<name>conv15_2_mbox_priorbox</name>
			<min>-0.396250</min>
			<max>1.396250</max>
		</layer>
		<layer>
			<name>conv16_1</name>
			<min>… -1.223763</min>
			<max>… 1.256797</max>
		</layer>
		<layer>
			<name>conv16_1/relu</name>
			<min>… -0.000000</min>
			<max>… 1.256797</max>
		</layer>
		<layer>
			<name>conv16_2</name>
			<min>… -0.584462</min>
			<max>… 0.470405</max>
		</layer>
		<layer>
			<name>conv16_2/relu</name>
			<min>… -0.000000</min>
			<max>… 0.470405</max>
		</layer>
		<layer>
			<name>conv16_2_mbox_conf</name>
			<min>… -67.418968</min>
			<max>… -16.907986</max>
		</layer>
		<layer>
			<name>conv16_2_mbox_conf_flat</name>
			<min>… -67.418968</min>
			<max>… -20.408407</max>
		</layer>
		<layer>
			<name>conv16_2_mbox_conf_perm</name>
			<min>-85.301331, -88.136276</min>
			<max>-5.930404, -5.335750</max>
		</layer>
		<layer>
			<name>conv16_2_mbox_loc</name>
			<min>… -3.046687</min>
			<max>… -1.614355</max>
		</layer>
		<layer>
			<name>conv16_2_mbox_loc_flat</name>
			<min>… -2.864627</min>
			<max>… -1.646274</max>
		</layer>
		<layer>
			<name>conv16_2_mbox_loc_perm</name>
			<min>-2.845707, -3.092587</min>
			<max>2.509712, 2.273648</max>
		</layer>
		<layer>
			<name>conv16_2_mbox_priorbox</name>
			<min>-0.442820</min>
			<max>1.442820</max>
		</layer>
		<layer>
			<name>conv17_1</name>
			<min>… -0.702839</min>
			<max>… 1.088577</max>
		</layer>
		<layer>
			<name>conv17_1/relu</name>
			<min>… -0.000000</min>
			<max>… 1.088577</max>
		</layer>
		<layer>
			<name>conv17_2</name>
			<min>… -1.625792</min>
			<max>… 3.448684</max>
		</layer>
		<layer>
			<name>conv17_2/relu</name>
			<min>… -0.000000</min>
			<max>… 3.448684</max>
		</layer>
		<layer>
			<name>conv17_2_mbox_conf</name>
			<min>… -123.823975</min>
			<max>… -24.625391</max>
		</layer>
		<layer>
			<name>conv17_2_mbox_conf_flat</name>
			<min>… -123.823975</min>
			<max>… -24.625391</max>
		</layer>
		<layer>
			<name>conv17_2_mbox_conf_perm</name>
			<min>-139.016205</min>
			<max>-3.488841</max>
		</layer>
		<layer>
			<name>conv17_2_mbox_loc</name>
			<min>… -3.604866</min>
			<max>… -2.423785</max>
		</layer>
		<layer>
			<name>conv17_2_mbox_loc_flat</name>
			<min>… -3.604866</min>
			<max>… -2.423785</max>
		</layer>
		<layer>
			<name>conv17_2_mbox_loc_perm</name>
			<min>-3.607322</min>
			<max>2.150101</max>
		</layer>
		<layer>
			<name>conv17_2_mbox_priorbox</name>
			<min>-0.322724</min>
			<max>1.322724</max>
		</layer>
		<layer>
			<name>conv2</name>
			<min>… -1.451803</min>
			<max>… 8.117411</max>
		</layer>
		<layer>
			<name>conv2/dw</name>
			<min>… -8.790136</min>
			<max>… 10.270714</max>
		</layer>
		<layer>
			<name>conv2/dw/relu</name>
			<min>… -0.000000</min>
			<max>… 10.270714</max>
		</layer>
		<layer>
			<name>conv2/relu</name>
			<min>… -0.000000</min>
			<max>… 8.117411</max>
		</layer>
		<layer>
			<name>conv3</name>
			<min>… -12.789540</min>
			<max>… 8.404686</max>
		</layer>
		<layer>
			<name>conv3/dw</name>
			<min>… -12.762131</min>
			<max>… 13.585388</max>
		</layer>
		<layer>
			<name>conv3/dw/relu</name>
			<min>… -0.000000</min>
			<max>… 13.585388</max>
		</layer>
		<layer>
			<name>conv3/relu</name>
			<min>… -0.000000</min>
			<max>… 8.404686</max>
		</layer>
		<layer>
			<name>conv4</name>
			<min>… -2.571560</min>
			<max>… 5.013097</max>
		</layer>
		<layer>
			<name>conv4/dw</name>
			<min>… 0.224767</min>
			<max>… 8.842507</max>
		</layer>
		<layer>
			<name>conv4/dw/relu</name>
			<min>… 0.224767</min>
			<max>… 8.842507</max>
		</layer>
		<layer>
			<name>conv4/relu</name>
			<min>… -0.000000</min>
			<max>… 5.013097</max>
		</layer>
		<layer>
			<name>conv5</name>
			<min>… -6.248647</min>
			<max>… 7.112530</max>
		</layer>
		<layer>
			<name>conv5/dw</name>
			<min>… -8.750029</min>
			<max>… 9.063770</max>
		</layer>
		<layer>
			<name>conv5/dw/relu</name>
			<min>… -0.000000</min>
			<max>… 9.063770</max>
		</layer>
		<layer>
			<name>conv5/relu</name>
			<min>… -0.000000</min>
			<max>… 7.112530</max>
		</layer>
		<layer>
			<name>conv6</name>
			<min>… -1.395667</min>
			<max>… 3.923458</max>
		</layer>
		<layer>
			<name>conv6/dw</name>
			<min>… -1.536597</min>
			<max>… 4.214315</max>
		</layer>
		<layer>
			<name>conv6/dw/relu</name>
			<min>… -0.000000</min>
			<max>… 4.214315</max>
		</layer>
		<layer>
			<name>conv6/relu</name>
			<min>… -0.000000</min>
			<max>… 3.923458</max>
		</layer>
		<layer>
			<name>conv7</name>
			<min>… -0.806749</min>
			<max>… 3.169435</max>
		</layer>
		<layer>
			<name>conv7/dw</name>
			<min>… -0.245676</min>
			<max>… 5.406409</max>
		</layer>
		<layer>
			<name>conv7/dw/relu</name>
			<min>… -0.000000</min>
			<max>… 5.406409</max>
		</layer>
		<layer>
			<name>conv7/relu</name>
			<min>… -0.000000</min>
			<max>… 3.169435</max>
		</layer>
		<layer>
			<name>conv8</name>
			<min>… -5.265873</min>
			<max>… 6.884428</max>
		</layer>
		<layer>
			<name>conv8/dw</name>
			<min>… -0.243061</min>
			<max>… 4.648342</max>
		</layer>
		<layer>
			<name>conv8/dw/relu</name>
			<min>… -0.000000</min>
			<max>… 4.648342</max>
		</layer>
		<layer>
			<name>conv8/relu</name>
			<min>… -0.000000</min>
			<max>… 6.884428</max>
		</layer>
		<layer>
			<name>conv9</name>
			<min>… -4.554012</min>
			<max>… 5.294399</max>
		</layer>
		<layer>
			<name>conv9/dw</name>
			<min>… -4.355919</min>
			<max>… 8.817715</max>
		</layer>
		<layer>
			<name>conv9/dw/relu</name>
			<min>… -0.000000</min>
			<max>… 8.817715</max>
		</layer>
		<layer>
			<name>conv9/relu</name>
			<min>… -0.000000</min>
			<max>… 5.294399</max>
		</layer>
		<layer>
			<name>data</name>
			<min>0.000000, 0.000000, 0.000000</min>
			<max>255.000000, 255.000000, 255.000000</max>
		</layer>
		<layer>
			<name>detection_out</name>
			<min>-1.000000</min>
			<max>20.000000</max>
		</layer>
		<layer>
			<name>mbox_conf</name>
			<min>… -123.823975</min>
			<max>… -24.625391</max>
		</layer>
		<layer>
			<name>mbox_conf_flatten</name>
			<min>… 0.000000</min>
			<max>… 0.000071</max>
		</layer>
		<layer>
			<name>mbox_conf_reshape</name>
			<min>-462.381500</min>
			<max>11.517950</max>
		</layer>
		<layer>
			<name>mbox_conf_softmax</name>
			<min>0.000000</min>
			<max>1.000000</max>
		</layer>
		<layer>
			<name>mbox_loc</name>
			<min>… -3.604866</min>
			<max>… -2.423785</max>
		</layer>
		<layer>
			<name>mbox_priorbox</name>
			<min>-0.442820</min>
			<max>1.442820</max>
		</layer>
	</statistics>
</net>
